RNNPB-pytorch-master/model1.pth (torch, 730372 bytes, 11 tensors)

pb f8 [30, 2]
0.10317250669679877 -0.011140903968039096 -0.004474543682869318 0.1146772444646246 0.0822044254661863 0.14736770836121343 0.13329013137472132 -0.04067922795756415
0.12218253441720446 0.012903827054967917 0.07004014548798643 0.06414745020739039 0.03274235341904273 0.09008112952131674 -0.1087258759582345 0.11713792382124937
0.17264293060829736 0.08308112874975292 -0.06941905833828511 0.04208035614330045 0.0651086569542508 -0.006374652298949891 -0.01361486137252616 0.015143373066313375
-0.04174497056244087 0.02322291806942057 -0.06124006542795528 0.06987782325857474 0.015906492448231686 -0.05197790156982794 0.016911348580919836 0.0017615924586472235
-0.13039471965472174 -0.049595158269173566 0.09656903839205919 0.034019496696558287 -0.09548073474096602 -0.04409616539835497 -0.06980927563558534 0.03780657773646713
-0.026169305574810318 0.0530554122473942 -0.08345317955047217 -0.10765079684486996 -0.04901016764712075 -0.1823930985207408 0.05055439653003936 -0.1794979043958479
-0.08483187646312304 -0.19307326535242228 0.0675892328376621 -0.05518096206831227 0.16535086655176318 -0.05085790855973924 -0.04392661474700085 0.034861570438688434
-0.04949786763438867 0.10419093891818706 -0.15292676159612179 -0.01937128145752008
00000000: 6fed 1b6e 8369 ba3f ad5b 86d1 0ad1 86bf
00000010: 44e7 842c e653 72bf 6a2a 92e6 7c5b bd3f
00000020: a5b7 f666 590b b53f a6ed f2ef f1dc c23f
00000030: fb25 91a9 a60f c13f ac95 6863 e8d3 a4bf
00000040: 8ddb 76c5 5a47 bf3f 6bfb 8d59 526d 8a3f
00000050: f029 47a6 26ee b13f 2d35 c3a0 f76b b03f
00000060: 3efa 4112 9bc3 a03f 37e2 4791 8e0f b73f
00000070: bb35 7881 75d5 bbbf c300 ef3f c0fc bd3f
00000080: f392 6cde 2919 c63f b71b e50a ce44 b53f
00000090: 7934 4889 72c5 b1bf 3507 e172 8e8b a53f
000000a0: d613 4e00 f6aa b03f 3497 5bb2 4e1c 7abf
000000b0: e334 adc2 1be2 8bbf a94a 9120 7d03 8f3f
000000c0: 2124 adc6 985f a5bf 82de 80a6 bfc7 973f
000000d0: 8699 6f9c db5a afbf a97a 9c55 83e3 b13f
000000e0: f5d8 6fa3 ca49 903f 2ed8 b6f6 d89c aabf
000000f0: c960 5864 3551 913f 3fd9 eb7f a7dc 5c3f
00000100: a97a 3e30 c6b0 c0bf dbb1 9c5d 8964 a9bf
00000110: 4e37 b39d bfb8 b83f f7e7 79e3 006b a13f
00000120: bc49 1ce9 6c71 b8bf 66a6 87c8 c593 a6bf
00000130: 26f2 cf4b 05df b1bf 6253 e73d 625b a33f
00000140: 194f 695e 20cc 9abf 12eb f438 142a ab3f
00000150: 599f ea04 305d b5bf 5549 d6ab 008f bbbf
00000160: 5285 6e56 dc17 a9bf f3d2 9434 a858 c7bf
00000170: 32f4 870f 44e2 a93f 6c54 8a8e c9f9 c6bf
00000180: ce42 11b7 8ab7 b5bf afd5 35f0 9fb6 c8bf
00000190: 0c78 9928 874d b13f 94f3 e3d6 ad40 acbf
000001a0: 2a40 1a9a 372a c53f 8d9a 033c 0c0a aabf
000001b0: 0c54 869b 8c7d a6bf 71bd d731 60d9 a13f
000001c0: 5e41 6cd5 c857 a9bf 1672 31e3 41ac ba3f
000001d0: 3688 dea7 1a93 c3bf 1cdc 5db1 10d6 93bf

weight f8 [240, 6]
-0.09860170118409442 0.05533610329472834 -0.41480367348347413 0.262819499108798 0.37859451899239566 0.2061547906401707 -0.14304938543925372 0.35650804406421766
-0.22982880354342888 0.3142176918613796 -0.3293766808897016 -0.3648286609155157 -0.08167190637252218 0.31500788033440086 -0.21772508130484333 -0.24014517322622528
0.405082121338291 0.01991537514479024 -0.14909231139353496 0.1283315434556578 0.2427756508765543 -0.3848090357692589 0.15632828714934727 0.04234027758391249
-0.09990930875168434 0.3393913738186525 -0.37922857274215 -0.06820685497114129 0.6141760895294174 0.1680359432245795 -0.20095273277176107 0.11163859635903974
0.13578489102357835 0.36521207586994575 -0.5025541784894451 -0.267134945053267 0.1639903108966433 0.5044888556933254 -0.06396988877956993 -0.3007225751419669
0.16861826921040585 0.0548762678554854 -0.17149401083283553 0.2592718203708141 0.3628888716793095 -0.4143130090411934 -0.16113859897551058 -0.33627815556215984
0.14145174708325822 -0.0373481645227781 -0.47724069548839726 0.26506329402862794 0.22098463400529256 0.06180433243500299 -0.26104532710039424 -0.16234144974617792
0.055005590295925604 0.4794941340369 0.3921712909334462 -0.2975464851939283 0.14179598866088575 0.2707050299253195 -0.037780586338004 -0.0023448306713079645
0.4358266018600032 0.24950227932832805 0.02653528702599683 -0.14393151197157333 -0.1727917351103204 0.26219592189259416 -0.13098301318173658 -0.20379860836922226
0.22542559396111087 0.21575077180271232 0.12751079984389518 -0.27363746240515746 0.22864379496109075 0.23114359362509443 0.2091121107215841 0.4108090477596148
0.4865921940466931 -0.03452654799990906 -0.545585514324749 0.4316358532914872 0.07442212299054347 -0.16896002569480847 0.460339793257665 0.2419228666175311
-0.04318982176190591 -0.1905270762084851 0.10750956917933381 -0.41913555911959466 0.1703167927621997 0.3293640101955735 -0.09102142320804728 0.1193254613776055
0.3194768831560147 -0.22598629757263475 0.12339133723683997 0.2818039738125562 0.24129623634134398 0.20874292538515615 0.15728821513881305 0.09510450201962863
-0.45218574259717503 -0.06519475619532428 0.13371052994292987 0.32695695771633965 0.36074728067666584 0.16405040134474896 -0.37901499600982186 0.5083295053202608
-0.23749834396348474 -0.20290992723921186 0.02653579318526308 -0.23600739528724743 -0.17913490789870226 -0.04706885325197596 -0.4493761021238409 0.11940020467400896
-0.41443550164097026 0.039270627537049026 -0.11898437038200273 0.2674459115625136 0.10947842861745377 0.29245292019182817 0.07296649790455983 0.40099113863625224
-0.0653668559596599 0.242649807294372 -0.02556824220038603 -0.4440366683225837 -0.03195270975570178 -0.20235526163354808 -0.3846318284362894 0.26426828348964637
0.2254930229485072 0.11045194575511125 0.28789947831950313 0.2363170212535629 0.37349057552425885 -0.27656104145375787 0.36600519640020507 0.18665710663592633
-0.19978737261216642 0.16842819100272843 0.3983520216641187 -0.3057821109150765 0.3178172193480207 0.37279044291249913 0.056678412856365004 0.26189564500644363
-0.5441816297221727 -0.34847867968265156 -0.06440432268026644 -0.35727236944500584 -0.06014478975949341 -0.4552452047924615 0.3188588123004681 0.2094063920088802
0.5364765742569041 -0.29980761462825756 0.15526974743929414 -0.0023972053178314668 0.09999129588823746 0.34211278104186355 -0.1714323706046496 -0.0572433331702311
0.07479840854078304 -0.14155513473691492 0.34271558327877444 0.1753249356063229 -0.6221145619497969 -0.13617726672923205 -0.1008280234031878 -0.3201243393232921
0.015933600051355298 0.2365411298036357 0.2198110090439602 0.5547724606898297 -0.05678432775037132 -0.40748456266334754 0.11077859606001224 0.4782532010047844
-0.1943241732714855 -0.22934037354075004 -0.27805467260428257 0.03904257910796904 0.21029202895039845 0.45413616277584856 0.27904850943149034 0.3222316733027169
0.37462091853095575 -0.19994327866684802 0.16823210934988236 0.39067038291089484 0.5285341996964731 -0.03779565915462765 -0.13833734024813937 -0.06370592476391729
0.24624916302471964 -0.25899893865959644 -0.24968969253577697 0.35054716327743335 -0.3706926443245672 -0.3320508227170407 0.28144812553532533 0.08264768042701988
0.3879486110102075 -0.5414158300658705 -0.08470370663979566 0.31888862534236606 -0.3378988388913603 -0.3129359800339936 0.13470057056489712 -0.0930319756947035
-0.4101730408237971 0.2703901953067622 0.27762988362948693 0.14022030288879941 -0.14866143502756407 0.39763107608896137 -0.449913428451739 0.10507430280085402
-0.12100226776645927 0.4255636868341782 -0.4204648147422018 0.1732361833311186 -0.014913540646252842 -0.2147528574882071 -0.2308472974901077 -0.25088761397887427
0.36518884468600904 -0.2918663083225846 0.3724831386027935 0.2992840333320871 -0.010976647996734252 0.14084246375530998 -0.11678404224756302 -0.36592407993053017
-0.32371061253150496 0.011313038641641116 0.17775420685330373 0.4829485044914689 0.32718143356324736 -0.23850648556922696 0.3758785173203425 -0.24585448671947424
-0.2169333530821299 0.3295647467724391 -0.21737214747653164 -0.22869333096964115 -0.17941087937877723 0.02180736085837345 -0.31416536903757597 0.19707491470408317
00000000: 0a68 ea09 f63d b9bf 3abc e083 0355 ac3f
00000010: dcd1 f7b4 248c dabf cc18 5be0 08d2 d03f
00000020: a519 6181 e43a d83f 1b4c dbb9 4763 ca3f
00000030: cc55 1638 714f c2bf 4c12 811d 07d1 d63f
00000040: 4aec 72bd 076b cdbf 7aa1 9785 241c d43f
00000050: 7c1f 1fee 8114 d5bf a6a3 d14f 5a59 d7bf
00000060: 8f38 df36 73e8 b4bf a62f 01d0 1629 d43f
00000070: 3b93 dc5b 6ade cbbf 1b42 a6b8 13bd cebf
00000080: a6e7 d58f ddec d93f 3edf bc33 b264 943f
00000090: 9098 c2f4 7415 c3bf e9f7 1703 2b6d c03f
000000a0: 3dd4 63c4 4513 cf3f 8964 f513 b6a0 d8bf
000000b0: a281 5fb8 9002 c43f f58c 0df7 9fad a53f
000000c0: 178a a70d a893 b9bf b01e c698 96b8 d53f
000000d0: ffb8 68eb 4745 d8bf 16cd 7623 0176 b1bf
000000e0: d172 509d 54a7 e33f d0dd 59a8 3382 c53f
000000f0: 10f5 a5b3 d1b8 c9bf 095b 55d8 5894 bc3f
00000100: 575c 1e39 6661 c13f d4cd 7d78 a25f d73f
00000110: ed91 2280 ec14 e0bf add7 272b bd18 d1bf
00000120: f4ba 146f a2fd c43f 08c7 0cd0 c524 e03f
00000130: b3ac 3ca4 5460 b0bf 68d5 59e6 093f d3bf
00000140: 0e27 e28f 4895 c53f f21c 88ff bd18 ac3f
00000150: af52 fe07 84f3 c5bf 1217 51d5 e897 d03f
00000160: 787a fc3e 9239 d73f eee9 08b6 1a84 dabf
00000170: ca8d 5c8a 30a0 c4bf 53ea 1fd0 9485 d5bf
00000180: dba2 d741 171b c23f 6ec5 6172 4c1f a3bf
00000190: 7959 dc8e 1c8b debf 7445 ce08 ccf6 d03f
000001a0: 4852 fc77 3949 cc3f 3770 1e45 d1a4 af3f
000001b0: 43de aa75 f7b4 d0bf c8f7 b8c8 9ac7 c4bf
000001c0: 171b d656 b129 ac3f 26fd 132a 08b0 de3f
000001d0: eb4f 3f9d 5519 d93f a1a6 bc69 000b d3bf
000001e0: a151 00f7 5e26 c23f af15 9930 3b53 d13f
000001f0: 35a9 7d1d fa57 a3bf eb9a 8861 7735 63bf
00000200: 30cb 6d42 95e4 db3f 5d0e ffd0 b0ef cf3f
00000210: 1fd4 ddf7 102c 9b3f 0e10 6408 596c c2bf
00000220: a3b1 a821 0a1e c6bf bb16 6b67 d1c7 d03f
00000230: 6d3a f926 0dc4 c0bf 7843 f5a2 1216 cabf
00000240: bd46 dff0 beda cc3f 415d 7da6 b89d cb3f
00000250: c2b0 9b1d 4652 c03f ad65 ffb3 4683 d1bf
00000260: 8346 e52a 3344 cd3f 655c a6ff 1c96 cd3f
00000270: 0095 5f86 2fc4 ca3f 16d2 4108 b24a da3f
00000280: fdd7 fa95 5324 df3f 80bb 01b5 76ad a1bf
00000290: c046 a6c0 6f75 e1bf 5fc0 6afc eb9f db3f
000002a0: cde0 5708 540d b33f 0763 586c 7ba0 c5bf
000002b0: 5db3 4509 3576 dd3f 5a70 2318 54f7 ce3f
000002c0: b393 f9ef f91c a6bf 5db2 a8f4 3063 c8bf
000002d0: a5dd a143 bf85 bb3f ec98 c0f3 1dd3 dabf
000002e0: e4c6 6fcf f0cc c53f d43d 11c9 4c14 d53f
000002f0: dff7 e913 2e4d b7bf ca69 320a 1d8c be3f
00000300: 0deb 3e2b 4f72 d43f 5f94 b576 1eed ccbf
00000310: 3bbc 0a1e 9396 bf3f e418 da88 1309 d23f
00000320: 5ff2 dd89 cbe2 ce3f 847a e692 16b8 ca3f
00000330: 07a1 082e 0522 c43f 816d e0c5 c458 b83f
00000340: a207 0b78 9cf0 dcbf ccc7 ba81 9ab0 b0bf
00000350: d42b 9e38 6d1d c13f 69d8 25e0 dcec d43f
00000360: 4024 28c3 7b16 d73f 7eef 5582 9aff c43f
00000370: 7f91 231d c841 d8bf f627 1e3d 3c44 e03f
00000380: 9eb2 1682 5866 cebf 0859 c3d6 f3f8 c9bf
00000390: d7d2 9def 322c 9b3f 47ba 2f86 7d35 cebf
000003a0: 5d9a 7f85 e4ed c6bf 7042 c1a2 6819 a8bf
000003b0: 5f74 8efb 93c2 dcbf 3be8 3506 0391 be3f
000003c0: 495b 767b 1c86 dabf 7117 ee99 471b a43f
000003d0: 499e 867b c275 bebf ac08 e774 d51d d13f
000003e0: 0489 873e c706 bc3f 8bfd f573 8cb7 d23f
000003f0: 1c28 34b2 eead b23f a26c 9bbc d6a9 d93f
00000400: 13ce 96dc e1bb b0bf 43e2 5a1d 260f cf3f
00000410: 4778 44b0 8f2e 9abf 22e6 2ac6 186b dcbf
00000420: 05b1 d606 1b5c a0bf d3de 71f7 c6e6 c9bf
00000430: 669c 08d1 ce9d d8bf 5051 bd84 c5e9 d03f
00000440: 3e1f 8593 f4dc cc3f 943a cc26 9446 bc3f
00000450: 0abc faee f16c d23f 1cd7 e2da a23f ce3f
00000460: 116b cf03 45e7 d73f d10f 1915 2db3 d1bf
00000470: b31d 2d0f a16c d73f e69c 484c 61e4 c73f
00000480: 59f2 c2f3 a192 c9bf 7463 0a12 0e8f c53f
00000490: a3f1 557a 997e d93f 1941 8521 ef91 d3bf
000004a0: 6525 cd08 1e57 d43f b583 2472 ccdb d73f
000004b0: 92ec 36f3 f304 ad3f bd1e 91f3 e5c2 d03f
000004c0: ecb3 d797 ef69 e1bf a0c6 2585 794d d6bf
000004d0: 92fd a13b cd7c b0bf 7af7 a1ed 8cdd d6bf
000004e0: 6b69 1542 4ccb aebf fba4 8fc8 bc22 ddbf
000004f0: 6ccd b7ca 2e68 d43f 0731 a022 d4cd ca3f
00000500: d31c b0eb d02a e13f 88e3 fa46 0c30 d3bf
00000510: 61ac a70b e1df c33f bbe8 23ce 4da3 63bf
00000520: f481 b991 0799 b93f 1394 8701 2de5 d53f
00000530: 2682 9cf4 7ef1 c5bf 3ea6 c287 ff4e adbf
00000540: 0abb 790e fd25 b33f 7351 2389 7a1e c2bf
00000550: fbc2 8057 0def d53f 801d 4d28 0c71 c63f
00000560: 6112 3ecc 5ce8 e3bf b1c5 87b5 416e c1bf
00000570: c479 0987 ddcf b9bf 7204 03cc ea7c d4bf
00000580: 8f30 83cc e550 903f 4f2f 55d0 fa46 ce3f
00000590: 3f81 9263 c422 cc3f e44b ec2c b2c0 e13f
000005a0: 0df4 39dd d512 adbf 66e4 9021 3a14 dabf
000005b0: 1daf 2c6f fc5b bc3f 9876 6150 b39b de3f
000005c0: 6efa 8250 9ddf c8bf e245 017e 065b cdbf
000005d0: e176 55d3 a5cb d1bf 0f27 d790 63fd a33f
000005e0: 00c9 7965 d9ea ca3f aa67 c31f 9110 dd3f
000005f0: 015f 8047 eedb d13f 7d83 a498 719f d43f
00000600: 553a 5f04 caf9 d73f a0ed 76c9 bd97 c9bf
00000610: 56bd e537 a188 c53f cc8e 8759 be00 d93f
00000620: bf71 d08d c0e9 e03f 6cf1 ffdf f359 a3bf
00000630: 9037 17b8 09b5 c1bf 6c26 6c0f 084f b0bf
00000640: bfe4 edb2 1785 cf3f a277 cf48 7093 d0bf
00000650: 5773 cbf3 d4f5 cfbf 85db 7e5e 5d6f d63f
00000660: 4379 0fa4 6db9 d7bf 4c7e 0b18 5240 d5bf
00000670: 5f76 acff 3e03 d23f 2939 86fc 6528 b53f
00000680: 6051 3469 26d4 d83f 6c6d 754a 4753 e1bf
00000690: b92e de61 24af b5bf e65b 3ad6 ab68 d43f
000006a0: d643 9973 22a0 d5bf aa36 ffa1 2407 d4bf
000006b0: 3f15 aa48 de3d c13f fc4c 178d f1d0 b7bf
000006c0: 4f80 026d 4640 dabf 281a 80ad 124e d13f
000006d0: fe2d a521 b0c4 d13f f940 9227 bdf2 c13f
000006e0: 2656 cf80 5607 c3bf 5f39 eb9c c972 d93f
000006f0: 28d0 4eb1 61cb dcbf cdfe 2d46 26e6 ba3f
00000700: af7c cc2e 01fa bebf ce59 5479 6f3c db3f
00000710: e3ee 1b41 e5e8 dabf c50c f26e 9a2c c63f
00000720: 86eb be8a fd8a 8ebf f633 d189 057d cbbf
00000730: f984 8b7c 678c cdbf ecaf 40ec 8a0e d0bf
00000740: 7196 3208 415f d73f 292f 4306 f0ad d2bf
00000750: 5611 a784 c3d6 d73f 1a15 d837 7827 d33f
00000760: bd4e 53c1 ec7a 86bf a5ca db37 2007 c23f
00000770: 11e1 251a 8fe5 bdbf 8db6 07d5 4c6b d7bf
00000780: 6338 8cb7 acb7 d4bf 7ab5 df57 4a2b 873f
00000790: 66a7 945c a6c0 c63f 9759 1cd8 a0e8 de3f
000007a0: 86cd 4065 8af0 d43f 49ad b369 6187 cebf
000007b0: d43a cac4 640e d83f 267b 04ea 2878 cfbf
000007c0: 841e 73dc 78c4 cbbf 6256 53bc 9617 d53f
000007d0: 038b 3cbc d9d2 cbbf 0bf9 a9b4 d245 cdbf
000007e0: d13d bd89 eff6 c6bf 278e cb36 ab54 963f
000007f0: 9656 6310 491b d4bf 2a0d c234 c039 c93f

bias f8 [240]
0.39734403452809586 0.21589713819937048 -0.02398032960396871 -0.13435811341747045 -0.1204346286160864 -0.10421342132184908 0.23029552452839408 0.13358410070737048
-0.3442724213282176 -0.14376245400564652 -0.1893018518267221 0.002184798404979696 0.11697713407212047 -0.015636939960360023 -0.014289944523614468 0.3538241965920741
0.3532930559832766 -0.26630501480185625 0.17443898587505793 -0.30467529027725043 0.23316040317970885 0.3287091478502109 0.40760275326185663 0.29988611248364094
-0.17003165523866834 0.03585272883879987 -0.2948946662587323 0.20704194356389308 -0.1377200848369408 -0.18776310587132275 -0.28167249978265846 0.3094860396235677
-0.33743101334486464 0.26982128605696654 -0.4406308905387864 0.2261179380112064 0.3030566400248652 -0.3147628829069572 -0.2656738241578437 -0.26800156148356
0.19569427779062495 -0.3196007665109294 0.3439043887747871 -0.23835600277421018 -0.4208972027663216 -0.3385381353273852 0.269216154739501 0.10373139926879711
-0.4199333843575185 0.04006925579025701 -0.3886652404569409 0.09000301809057996 -0.3285720676250049 -0.40480333959717263 0.061910072519509335 -0.28387039908676526
0.10223531538344974 0.27794483268222275 -0.017188722129561334 0.36013233374573644 0.13052896566702638 0.06895482777967661 0.2739091082468773 0.3634537048935221
-0.31867151891128676 -0.11017661585625066 -0.13663829679835995 0.13956721364803082 0.37733537483809965 -0.251705228830005 -0.34135571022510497 0.2024676857276036
0.050245484315325745 -0.09703239717142437 -0.10350544978699452 0.0427938660964353 -0.3230050457194057 -0.26268328071262437 0.3640605519608725 -0.37494433046438386
-0.25934103586658547 0.4140120359186975 0.08373051633928782 -0.29681901843716507 -0.1379081645127639 0.020115204578203625 0.26719162571558824 -0.08848165465435061
0.3160333570377406 0.04863706101068603 0.15063781858777273 -0.11036660828866923 0.29155661246890374 0.4045693572788744 -0.3818489290389638 0.00868942375101678
-0.03674993306684828 0.0635109886607024 0.0863141890240286 0.37485367139892073 0.19097347419968913 0.08212146066024316 0.23436286609146512 0.09845306059856919
0.29599741669958396 0.39620068522522794 0.06047274300352033 0.03767200232082193 -0.08830432653679303 -0.18957600450708909 -0.17830297286959979 0.23939578239524664
0.11788705410422078 0.20661325393755045 -0.2923992077014449 -0.26504575613574316 0.23116512511735257 -0.35231620470256997 -0.1923495702150961 0.26679090254689747
0.1936613499828687 0.11868480953576463 0.27451834889349774 -0.36188456710840466 0.38589440998563335 -0.07153962323932493 -0.12016850219975235 0.33774168812387073
0.20605282106205766 0.04561975604694511 0.014697269938386477 -0.13645149536904527 -0.1450838802127735 0.19901798597470965 0.383616809499863 0.2303732802077756
-0.2693495399219278 -0.2394208643072139 0.22950512221650596 -0.13443584191751096 -0.014330229712510948 -0.16319649694067379 -0.3475757296928737 0.05618938887966205
0.017121630892379048 -0.028091482368750902 0.13971926341692747 -0.11653469624364968 0.26321795276830423 0.05689139339424221 -0.08682944761995495 -0.3176484648930452
-0.09553843768453958 0.24446159936846146 0.1679882865769105 -0.32022568996339057 -0.2898121546870214 0.2862967994046492 0.23171560872619515 0.2934939461769903
-0.25061777171339483 0.041059700335200976 -0.28082780045679173 -0.4062655548898061 0.2371152212194524 0.35372362465774393 0.14195064709515348 -0.2451945692600393
0.20943854339270937 -0.04534431308911201 -0.17985304280523778 -0.1400496608741665 0.36942804035904925 -0.11182537806783746 -0.0019324566776836292 -0.29911061687940643
-0.3907969272432997 0.23515289053900357 0.18396250604046469 0.02986698968583595 0.40698617649044694 0.13369574440761697 -0.31571878619957905 -0.20832819301927188
0.273526641051068 0.33773621058279424 0.02448147543772461 0.026452569675934737 0.32407081077870414 0.20926355913100284 0.2685575757260717 0.225409041176429
-0.21209053643195128 -0.2949653877769531 0.1501487492621171 0.014762867745940884 -0.28129322971075954 0.2201597323819279 -0.19386021394747321 0.1850577709549851
-0.2781674979353017 -0.22266442072981107 0.23614502554083924 -0.0008888226499039662 0.30256152619198584 0.40524427679357594 -0.25763186044779857 -0.2791957622501383
-0.08860405386518017 -0.09638671414211611 -0.07506485206182754 0.17053860892461142 0.08403099910319733 -0.2579179650399524 -0.26350162008526246 0.056075152837075155
0.010707152229577115 -0.18199651486954332 -0.3966751996856844 -0.36604851384674336 0.3528405752713893 0.2347869890465496 0.06543814551827318 0.1662978776365015
0.1297351580198043 0.3121627624209157 -0.22704865579770755 0.42181600495056615 0.12066447398815164 0.13704922651608942 -0.17617783014142052 -0.14796682521382273
0.07643556511277222 0.23982313687176238 0.2015978937417576 -0.2878036611503879 -0.37907888232700615 -0.10517608326221332 -0.24825927408910636 0.40267842296742706
00000000: 78c4 63ac 156e d93f 8be2 ee75 84a2 cb3f
00000010: cadb 95ad 4c8e 98bf 1647 8a8b a532 c1bf
00000020: 6d45 36c7 cdd4 bebf 40b1 6114 bbad babf
00000030: 04df 21e1 527a cd3f 84e0 e6a7 4819 c13f
00000040: 4d3e a131 8f08 d6bf 0e69 2cdf ce66 c2bf
00000050: 5481 5507 0b3b c8bf 6de4 53b6 dae5 613f
00000060: 6535 38a5 36f2 bd3f 0e01 f546 2103 90bf
00000070: 97e7 1fe3 0b44 8dbf 285f 393e 0ea5 d63f
00000080: 5188 567a 5a9c d63f d96c 5530 240b d1bf
00000090: 318a bd45 0454 c63f 5bf7 e8c9 cc7f d3bf
000000a0: db83 3039 33d8 cd3f 6c69 fa17 9209 d53f
000000b0: 173b c1db 2916 da3f 8013 6985 5531 d33f
000000c0: 3b75 44e7 98c3 c5bf 5185 abf3 495b a23f
000000d0: 5626 d6e0 8ddf d2bf e1eb 40b4 5980 ca3f
000000e0: bd41 30ce cfa0 c1bf 816d 8e17 9f08 c8bf
000000f0: 03f1 af17 ec06 d2bf 381d b088 9ece d33f
00000100: b53a be3f 7898 d5bf fa46 d87f c044 d13f
00000110: 212c 1ee8 4b33 dcbf f006 66be 6ef1 cc3f
00000120: 2684 6fad 4765 d33f ae1f 0538 1325 d4bf
00000130: fe50 8ac8 cc00 d1bf 2053 7605 f026 d1bf
00000140: 6702 9095 820c c93f ea38 fcc5 5674 d4bf
00000150: e544 af8d 8702 d63f ef39 5c12 7382 cebf
00000160: a8fd 36d2 faef dabf 2a84 ebda 9baa d5bf
00000170: 5a4e 0a65 d63a d13f 6d84 6d17 248e ba3f
00000180: de1a 1446 30e0 dabf d26f 631e f583 a43f
00000190: bdb0 362c e4df d8bf bf86 3d13 700a b73f
000001a0: 1606 3523 5307 d5bf 7c69 3844 4ce8 d9bf
000001b0: d44f 8751 adb2 af3f f853 18c0 ee2a d2bf
000001c0: 1673 11f8 172c ba3f f596 9d1f d9c9 d13f
000001d0: db40 a09d eb99 91bf d7e2 ea7c 680c d73f
000001e0: 223c 5c53 2cb5 c03f c50b 370a 06a7 b13f
000001f0: 96cc 7f11 ba87 d13f 712c 0854 d342 d73f
00000200: f4ff f839 1d65 d4bf 0cf5 e2e1 8834 bcbf
00000210: 09a7 101c 5d7d c1bf 5027 1ba5 56dd c13f
00000220: 306d a345 4326 d83f 00a7 833f f01b d0bf
00000230: 370f ee9e c5d8 d5bf d232 590c 76ea c93f
00000240: e4df cfaf c6b9 a93f ccf5 807c 1dd7 b8bf
00000250: 42fc ca49 557f babf 1d0a b5de 13e9 a53f
00000260: 86b3 f35a 1dac d4bf 2a78 f788 cdcf d0bf
00000270: cae1 1ba1 c44c d73f bd91 4a81 16ff d7bf
00000280: 23b2 e324 0b99 d0bf aaf4 9a56 2c7f da3f
00000290: 3ebc 5af5 5c6f b53f 342e 4132 15ff d2bf
000002a0: c483 3788 f9a6 c1bf c94f 4387 1499 943f
000002b0: 61aa 8de7 aa19 d13f a551 09d5 bba6 b6bf
000002c0: 1e05 3bf9 e339 d43f 3633 d4f4 f4e6 a83f
000002d0: ad08 309c 1948 c33f 4497 2b6d fc40 bcbf
000002e0: 9c22 df10 dda8 d23f 0f7f 9edf 76e4 d93f
000002f0: d109 8f7d 3670 d8bf c153 a7b6 c2cb 813f
00000300: 93fa 4d21 e3d0 a2bf f2fd 3b93 4142 b03f
00000310: 9cf9 09cb af18 b63f c768 dc40 9afd d73f
00000320: 48ab 0b9d d171 c83f ffe2 d57b e905 b53f
00000330: de3c a136 9aff cd3f 1143 7643 3834 b93f
00000340: 6f36 1b26 9ff1 d23f 3f7d 6c1e 5a5b d93f
00000350: bec2 ff8a 48f6 ae3f 43b2 e2a3 be49 a33f
00000360: fb21 92c2 1c9b b6bf 0f6e bbc9 0644 c8bf
00000370: aa93 a0be a1d2 c6bf a90d 1860 85a4 ce3f
00000380: 63d9 ff91 d82d be3f 6f7c 4a98 4d72 ca3f
00000390: 9e0e 9d2a abb6 d2bf a1fb a279 82f6 d0bf
000003a0: 5969 2d9e d196 cd3f a618 4344 598c d6bf
000003b0: 6f9b bc24 e99e c8bf b7ca 5326 1a13 d13f
000003c0: 167b 5626 e5c9 c83f fef3 7caf 2062 be3f
000003d0: 4191 a968 b591 d13f 0218 2ae3 1d29 d7bf
000003e0: 9f3d a677 7eb2 d83f 175a 2eb6 6b50 b2bf
000003f0: b50d f5ea 5cc3 bebf 0a39 3f50 8f9d d53f
00000400: d3e3 da57 f05f ca3f 5ed7 8b00 795b a73f
00000410: 778c ce2d 9a19 8e3f 1ad8 0c1b 3e77 c1bf
00000420: 0367 58cc 1b92 c2bf 88e0 89de 6b79 c93f
00000430: 86db bf84 2d8d d83f 88ac 2e24 df7c cd3f
00000440: a211 4ada 053d d1bf 15fb 16c7 57a5 cebf
00000450: a399 1781 6c60 cd3f 6a14 3994 3135 c1bf
00000460: f5da acdf 2a59 8dbf 664a 9770 9fe3 c4bf
00000470: b982 fa45 ae3e d6bf bda1 3d07 dbc4 ac3f
00000480: 5da3 f232 5588 913f db9f 4778 03c4 9cbf
00000490: d69a 7f21 52e2 c13f aa3c 37c5 37d5 bdbf
000004a0: 3f09 b71c 90d8 d03f 30b2 1a64 de20 ad3f
000004b0: f281 db65 743a b6bf 62c6 153a 5a54 d4bf
000004c0: 3db4 5d01 3575 b8bf b42b 3587 844a cf3f
000004d0: 72bd 7ae2 a380 c53f c7d5 6ee4 937e d4bf
000004e0: 984c 9747 488c d2bf bf1d 99cf af52 d23f
000004f0: a1d2 b968 dba8 cd3f b8dd 19d5 9ac8 d23f
00000500: 148c 531f 1f0a d0bf 6b1a 3fec c605 a53f
00000510: 0d40 b12a 15f9 d1bf 7a8d ef3d 4100 dabf
00000520: b4bb 42a4 ca59 ce3f d390 ee69 68a3 d63f
00000530: 70b9 7555 702b c23f 7278 1020 8962 cfbf
00000540: 4b60 32d7 e1ce ca3f fefc 8dab 5e37 a7bf
00000550: 76a0 77ac 6c05 c7bf a59d a2b4 25ed c1bf
00000560: ab51 e481 b5a4 d73f da08 aa85 96a0 bcbf
00000570: 7a56 d28e 4fa9 5fbf 388a 58db a024 d3bf
00000580: edc8 781d d102 d9bf bc62 366b 7d19 ce3f
00000590: db26 9159 158c c73f 4ff8 b8bf 7395 9e3f
000005a0: dfd5 7cbf 0f0c da3f e72b ec30 f11c c13f
000005b0: c670 5d91 bc34 d4bf 4d20 ed8b 7faa cabf
000005c0: 558a 79e2 7581 d13f 4e32 c856 789d d53f
000005d0: 2090 7301 ac11 993f f1fa 9ce6 6116 9b3f
000005e0: ca7e 787f 93bd d43f 012a 5bf7 25c9 ca3f
000005f0: 9189 351d 0c30 d13f 53a9 0916 34da cc3f
00000600: 0317 e25e c825 cbbf df0d 7d81 b6e0 d2bf
00000610: 45dc ceff 1238 c33f a4d9 4f91 fe3b 8e3f
00000620: 5069 8c51 b500 d2bf b5fd 3cb1 312e cc3f
00000630: e831 7357 69d0 c8bf 2ca8 0f19 f9af c73f
00000640: 204e 9c0c 7fcd d1bf a437 828a 4480 ccbf
00000650: 7fce e70c 003a ce3f accf 4c1b fc1f 4dbf
00000660: 706f 0105 2b5d d33f 9b0d eeb0 85ef d93f
00000670: c5fa c157 0a7d d0bf e2f3 02e7 57de d1bf
00000680: 4cdb a459 c1ae b6bf ca60 02b9 ccac b8bf
00000690: bf43 af3c 7337 b3bf 56ad 048a 35d4 c53f
000006a0: a099 ff38 0e83 b53f 1970 395a ba81 d0bf
000006b0: d863 2de6 35dd d0bf 695c 1be7 e1b5 ac3f
000006c0: 564d 46a5 a1ed 853f a2e2 ac6b a94b c7bf
000006d0: b531 7260 2063 d9bf 9527 eebe 566d d7bf
000006e0: 3184 dfa2 f094 d63f 4c99 bd03 800d ce3f
000006f0: 7670 e9e6 8dc0 b03f e4e6 ebb4 3f49 c53f
00000700: d810 6b62 299b c03f 521e e885 79fa d33f
00000710: be3e a02b ee0f cdbf a44a 8c8e 08ff da3f
00000720: 8a72 91f1 dde3 be3f d812 ea3c d48a c13f
00000730: 206b 5ec1 fe8c c6bf 3bd9 97b1 93f0 c2bf
00000740: 641f 69fc 4791 b33f e41b d848 86b2 ce3f
00000750: 431b 48b4 f5cd c93f bed6 130c 606b d2bf
00000760: e4b7 8c12 d442 d8bf 83bd eedd d1ec babf
00000770: ca19 92bb f5c6 cfbf 0ecc 5cb8 7bc5 d93f

weight f8 [240, 2]
-0.6795152248520137 0.3890947395744774 0.5151706022670113 0.43917233825927743 0.23765156536404103 -0.1915054210624805 -0.19172356989119435 0.09849137025608623
-0.3286715059871816 0.32398698909642376 -0.6788201701518951 0.3974707931976892 -0.5125260031453663 0.5693125334785264 -0.5717189134404036 -0.6668872899924606
0.651675053630041 0.5825391009442188 -0.49173582537050164 0.20475272405358336 -0.12688595082823118 0.32104042684295286 -0.2429038025451763 -0.39358674383304254
-0.3144319593716584 -0.6066201844524504 -0.19952501408431778 -0.377179732956023 0.17307628671224493 0.4050883464999983 0.4241588927212716 -0.5466632380496237
-0.22156286945839793 -0.6112064531727915 -0.07728476424572955 -0.5996575505530404 0.3740114298087121 0.3999342502855919 -0.4336616365826453 0.6733724708891838
-0.3118204251607467 -0.04490227250836392 -0.19310393365835243 0.2587142332882714 -0.5264452800192813 0.3633011666469005 0.24205956291315794 0.46676842737556024
-0.5383953906925018 -0.07494679501104862 0.08483071030900485 -0.49077884775339153 -0.10824851359476972 -0.4492198718728961 0.08862462506690702 -0.16866392957424747
-0.14659120536980752 -0.015491388659542504 -0.3743496124232766 0.07667500547919454 -0.09611186381400802 -0.5175279638322469 0.34805678030547527 -0.3761583363258365
0.0450854275177617 0.15022311125291365 -0.7085803240506956 0.01666790273233445 -0.22628108429690796 -0.3458779079235224 -0.3451345878520196 -0.17781508259984496
0.40132967744033554 0.08594573970024715 -0.5353354198348103 -0.15879965628589243 -0.15888377977171536 0.34443413169908244 -0.1756171237930196 -0.06546791485018237
-0.4979851223769983 0.31453448863208444 -0.09424545615350595 -0.37856449961545624 -0.18730852681449736 -0.4680211099955809 -0.14860249918533402 -0.11877862332724144
-0.5471634441259381 -0.5099669938167181 -0.5775244910998026 -0.22783126384954008 0.4759029307082108 0.12753010583756186 0.4781887940067685 0.02842667707994984
-0.1382528584505973 -0.39548794865119025 -0.5371565881327556 -0.4381365096447829 0.23692356773976034 0.028953953307033275 0.08938429600143302 0.5917212439042789
-0.4227029494079778 -0.3404037138968447 0.6346003948001125 -0.5255554571944077 0.3547992590577557 0.005571827657413398 0.3038200707675964 0.44463071780017366
0.6019985855490586 -0.11321872628905472 0.6768764395299545 -0.517294068640728 -0.2591895510061496 0.35265316797188573 -0.006506435593171161 -0.4273707202656105
0.4143136854106841 0.2228788606887194 -0.34247433813427686 -0.37159390839794293 -0.5151755705286659 0.6098143457143184 -0.7008560750771481 0.6313256076371664
0.3016768616991662 -0.253594466159301 0.5559084047494923 -0.15642700992902914 -0.442541707981619 0.051362246445829526 0.1349596144846034 -0.5995717730750598
-0.05609731518289189 -0.2788622039423374 0.045529158076803196 0.25867638075231897 -0.3170765285289217 0.5490604267312219 -0.22823973302493825 0.10153259492067354
0.16505136122136269 -0.050919934819250175 -0.6689776466986356 -0.2547150753961672 -0.19627005135339537 -0.024276968276955392 0.5613731610805559 -0.426175739069721
0.5018821263852088 0.5677647719700253 0.11522991265355863 0.4632530936304786 -0.48438002347559633 0.5805767862267552 -0.5657826737145053 -0.16319721938575954
0.5863065488367131 0.1760806271593473 -0.4512043543790613 -0.10749891721152885 0.5793606141948962 -0.6600615149471237 0.5846189961439262 -0.2891382975336524
0.6895865500070908 -0.37506386348996573 -0.32921928684606117 -0.41514601479063135 0.43169582277099705 -0.2005754467272168 -0.564966835767905 0.18176043911339682
0.17241915536783708 -0.6661592505115466 -0.0043461456541101 -0.6401991445410378 0.6090240712012192 0.5893563901096289 -0.6599137392712119 0.10639407837021561
-0.4136406308024095 -0.19115016416692476 0.5166924031218033 0.4199138704933903 -0.1246993554415269 0.6420989722295037 0.1726342060788639 0.32028054016855934
-0.6596851000057209 0.1328329723309174 0.512600629975597 0.2754393524074315 -0.1621662886202103 -0.610169909352241 0.3656648172736852 -0.351300001597176
0.2161092707539635 -0.40897224202000954 -0.41645893149714525 -0.14685207297900602 0.035207917850112395 -0.4047718264480183 0.6196820254158196 -0.17641205652981523
0.7050798203232966 0.5373513111402057 0.2951819227091392 0.05673977027758305 0.36015363744796175 -0.5529672320860674 0.3434708802870245 0.24863140897103012
0.587096099445006 -0.21968057236405264 0.16397732547560345 -0.041429570137038074 -0.04545661426943116 -0.10527719816229945 0.6520477148256525 -0.18319367009986876
0.3155169028756172 0.045555512381540826 0.38057225207436607 0.4036425512614701 -0.6958521694725414 -0.2722380352345807 -0.021461507442613745 0.1709591034701086
0.1281673819639086 -0.17762018504008678 0.2636146911158108 0.48295182016119864 -0.32297793045647366 0.25785872581165015 0.5351919737239028 -0.3213031739374839
-0.632325701371508 -0.545768255407166 0.36831921665551137 0.700188407357353 -0.6553843004552707 0.4177804480556441 0.5470955620037803 0.19268822943038852
0.2020637683601473 -0.43486998578959074 0.16611497046171794 0.06652926508332159 0.11601995051991378 -0.6695985497102102 -0.15787093831236815 0.11430626629554132
00000000: 97f3 7bb6 96be e5bf 3227 619f ede6 d83f
00000010: 341e 130f 477c e03f 9d69 884b 661b dc3f
00000020: 3277 8ad2 5d6b ce3f 092b 3ce8 3f83 c8bf
00000030: e10b 47df 658a c8bf 7828 30fe ba36 b93f
00000040: 8be3 5536 f408 d5bf dce9 9fec 33bc d43f
00000050: 875c d513 e5b8 e5bf 628d 7956 2970 d93f
00000060: 737c bbee 9c66 e0bf 19c8 0feb ce37 e23f
00000070: e565 7776 854b e2bf 8b57 9403 2457 e5bf
00000080: e9b8 5ea4 85da e43f 0f4b 660a 29a4 e23f
00000090: 4a39 0f8a 9978 dfbf e0dc c956 5635 ca3f
000000a0: e886 9080 cc3d c0bf ceff 7e25 ed8b d43f
000000b0: a4b6 00c8 7817 cfbf 25bb 3974 8630 d9bf
000000c0: df61 9439 a71f d4bf ea22 aabb 6e69 e3bf
000000d0: 54f0 1c21 098a c9bf 01a6 7076 b623 d8bf
000000e0: fb33 921f 5d27 c63f 4b53 0dac f7ec d93f
000000f0: 64e8 2257 6b25 db3f b427 2be7 437e e1bf
00000100: 5676 2a0f 2c5c ccbf c566 efd5 008f e3bf
00000110: 441b ea2e efc8 b3bf c297 0d08 6530 e3bf
00000120: 99f3 d6a2 cdef d73f a9b8 61d3 8598 d93f
00000130: 43bf a9bc 1cc1 dbbf 3ddd 8f6c 448c e53f
00000140: 0293 12a8 ddf4 d3bf 8706 e13f 6efd a6bf
00000150: 6852 e533 a1b7 c8bf dbe6 be24 c68e d03f
00000160: bf1f 9ac5 a3d8 e0bf 9e36 5689 5340 d73f
00000170: 5ab2 32c9 cefb ce3f 5689 98ae 88df dd3f
00000180: 0fed 6af8 883a e1bf 3831 8391 b62f b3bf
00000190: 8c3f 7926 77b7 b53f 1ed7 2aaf eb68 dfbf
000001a0: f0ea bab1 2cb6 bbbf d312 9ab4 04c0 dcbf
000001b0: 465a 487a 1ab0 b63f 84a3 c496 c796 c5bf
000001c0: c8e6 7828 80c3 c2bf 9383 4cfd f2b9 8fbf
000001d0: 3835 a813 58f5 d7bf b429 f420 f9a0 b33f
000001e0: a6b9 d67f c99a b8bf 5d99 edcd 968f e0bf
000001f0: 6409 24f2 8f46 d63f 7cc8 286a fa12 d8bf
00000200: e30f 6ee9 6f15 a73f 14a2 f7ca 823a c33f
00000210: d460 cca4 b0ac e6bf 465d 8304 6411 913f
00000220: 141b 6150 c7f6 ccbf f92f bc17 dd22 d6bf
00000230: 45be e261 af16 d6bf 5e3d 4006 a5c2 c6bf
00000240: 624f e1ab 62af d93f 2b3b 3e3d 8a00 b63f
00000250: 0f97 12bf 7721 e1bf e095 2e11 8c53 c4bf
00000260: 4a00 febe 4d56 c4bf 9084 d174 350b d63f
00000270: 4b80 a735 9f7a c6bf 4b06 3859 81c2 b0bf
00000280: b23d a0fd fcde dfbf 84e3 8843 5521 d43f
00000290: 3dd5 f95f 7820 b8bf 6c99 5198 663a d8bf
000002a0: f710 77ce b9f9 c7bf 6031 51d0 0ef4 ddbf
000002b0: 966c 0d1d 6805 c3bf 1187 a79e 4668 bebf
000002c0: d8cd 42e9 5c82 e1bf 7f6e 0f4d a651 e0bf
000002d0: cd34 3da4 147b e2bf 4fbc 9e29 9329 cdbf
000002e0: a596 dd90 3175 de3f 9cf3 e910 e852 c03f
000002f0: f6a7 e42b a59a de3f e1c0 9101 e21b 9d3f
00000300: bfd9 cf08 45b2 c1bf b9d0 5aaf ac4f d9bf
00000310: 5a8e 5b03 6330 e1bf 58e8 06b7 6d0a dcbf
00000320: 4905 8cef 8253 ce3f 73aa 2cea 1aa6 9d3f
00000330: be25 1aa4 e3e1 b63f aa5a dd63 61ef e23f
00000340: 0a52 e8ab 900d dbbf cbed a7a8 2cc9 d5bf
00000350: d93e b67c a54e e43f 424c 9cad 59d1 e0bf
00000360: f313 93f3 07b5 d63f 9aa3 1419 7cd2 763f
00000370: c32c f4bc c971 d33f 89eb ef65 d474 dc3f
00000380: a47c a589 9243 e33f d0cd b406 e7fb bcbf
00000390: b6d9 66c7 f8a8 e53f 2d41 674a ac8d e0bf
000003a0: 5653 42c5 8f96 d0bf 6648 d197 de91 d63f
000003b0: c613 6101 7ea6 7abf c0c2 b3b8 0a5a dbbf
000003c0: 97f1 478c 1d84 da3f 6b5b d064 4b87 cc3f
000003d0: ba61 807c 19eb d5bf 2891 fdd0 31c8 d7bf
000003e0: e5cc 637a 517c e0bf 3630 ef5f 9983 e33f
000003f0: c118 35b8 696d e6bf 05ba bdc2 d133 e43f
00000400: 264d bd77 ac4e d33f 1f73 a648 e43a d0bf
00000410: 290f 3f6c 00ca e13f 8499 eddd cc05 c4bf
00000420: 0969 b974 9a52 dcbf aec5 7701 274c aa3f
00000430: 6dfe 3e4d 5b46 c13f a6c9 9e24 b12f e3bf
00000440: a635 358c c9b8 acbf e875 81db e0d8 d1bf
00000450: e997 e809 994f a73f f10b e560 278e d03f
00000460: 7919 175a fb4a d4bf 31d4 0a2c e791 e13f
00000470: 6bb4 7ea6 f536 cdbf 0e8d a946 0afe b93f
00000480: 9192 4d2b 6720 c53f 21b9 867d 2d12 aabf
00000490: fd6b 4acf 4368 e5bf 4afb a775 404d d0bf
000004a0: 1ca0 df85 601f c9bf 6aa5 2ec3 0fdc 98bf
000004b0: 1a2e f6d8 c4f6 e13f 15cc 699b 7646 dbbf
000004c0: 65af e81a 6b0f e03f 39d4 ed06 212b e23f
000004d0: 5733 5e22 b57f bd3f 947a ba4d f0a5 dd3f
000004e0: 1f75 ea11 1500 dfbf 6e24 b5c4 1594 e23f
000004f0: 62e9 0744 e41a e2bf 3ead 0780 a5e3 c4bf
00000500: dde5 95f3 05c3 e23f 7ee5 8d5b cf89 c63f
00000510: 37bc 773a 88e0 dcbf d267 c78d 0c85 bbbf
00000520: 78d7 5145 1f8a e23f bf79 8153 391f e5bf
00000530: 57df a1e5 32b5 e23f e266 fbea 3d81 d2bf
00000540: 7057 01d0 1711 e63f b173 e6dc 0b01 d8bf
00000550: 76d7 8dc5 ed11 d5bf a7ca 2597 c091 dabf
00000560: 78c2 2784 e7a0 db3f 6378 09cc 74ac c9bf
00000570: 0254 5e54 3514 e2bf fd6c d912 ed43 c73f
00000580: 7620 c1b4 d411 c63f b4ff 5b34 2d51 e5bf
00000590: 263c 2b97 43cd 71bf d063 97ea 827c e4bf
000005a0: 0227 890c 207d e33f 03b4 a6ee 01dc e23f
000005b0: c93a 0b6b 031e e5bf 2690 166f a43c bb3f
000005c0: 51f6 658d 1679 dabf 9c69 dccb 9b77 c8bf
000005d0: 4ffe af81 be88 e03f 1dfa 396d dedf da3f
000005e0: 9921 7405 4cec bfbf 77ab d024 138c e43f
000005f0: 67cb a3ae e018 c63f 646d 64f3 797f d43f
00000600: a2db 45ed 231c e5bf 18f2 febb ab00 c13f
00000610: 18ef b46f 3967 e03f fdc3 a760 cca0 d13f
00000620: 9b99 116d ddc1 c4bf 247a b50b 8386 e3bf
00000630: 3540 df67 0d67 d73f a274 7c00 b37b d6bf
00000640: 5d16 20f5 77a9 cb3f bda7 1ce9 992c dabf
00000650: e911 ba5c 43a7 dabf a3b6 6579 0ccc c2bf
00000660: 27f6 73af c506 a23f 69ee 3b17 c8e7 d9bf
00000670: 3f8f 2266 6fd4 e33f 5634 b596 ab94 c6bf
00000680: ae75 2b8e 0390 e63f bcea 7960 fb31 e13f
00000690: 67fe 19b8 42e4 d23f 5215 73c3 fe0c ad3f
000006a0: c5f6 97d7 c10c d73f b737 3256 e8b1 e1bf
000006b0: af82 7d49 6dfb d53f 25fd 246d 27d3 cf3f
000006c0: 0137 57c2 7dc9 e23f a661 ef34 7e1e ccbf
000006d0: 9204 1a81 35fd c43f 90de a6b1 4136 a5bf
000006e0: d122 59df 1646 a7bf 5b20 1f4b 72f3 babf
000006f0: 6072 532b 93dd e43f 14e2 f4e2 e372 c7bf
00000700: 2ae7 cbce 6d31 d43f 6998 a957 0d53 a73f
00000710: 862a 1bb8 4b5b d83f 044a 3c91 47d5 d93f
00000720: e186 d7c4 6b44 e6bf 16d4 8314 596c d1bf
00000730: 1905 5b62 01fa 95bf b9c5 2de7 fce1 c53f
00000740: 7676 f9ec c967 c03f 6ba6 ed1a 42bc c6bf
00000750: 689a 4527 10df d03f 94b4 48c0 aee8 de3f
00000760: f3fa 28a0 abab d4bf 6a5a 96e2 c180 d03f
00000770: 323a 07eb 4a20 e13f 4966 0a30 3b90 d4bf
00000780: cef2 f91b 033c e4bf 6d66 05fd ee76 e1bf
00000790: 4885 81c3 8a92 d73f c86b d484 f167 e63f
000007a0: 1d8d 187f e8f8 e4bf 77a9 5334 eabc da3f
000007b0: aaf9 528d ce81 e13f 1324 dd05 02aa c83f
000007c0: ed1b 68be 39dd c93f 179c beeb e8d4 dbbf
000007d0: af29 c15e 4143 c53f 0181 c2d9 0f08 b13f
000007e0: 31a4 2ac5 7bb3 bd3f 4e8a 0ef0 596d e5bf
000007f0: 9e2d 856a 1d35 c4bf 899b 77eb 2c43 bd3f

bias f8 [240]
0.418160032843907 -0.5387062924294084 -0.3961529423008553 0.4559959715510956 0.29316769372392715 0.32105497541334266 -0.3631885493489415 0.588564854069551
-0.18161870690980766 0.13753484973056337 0.052872928169554134 -0.40607851983566495 0.591291592740352 0.00266911142057229 0.3186727938264181 0.3066754324586207
-0.2122050278466042 -0.0440227168925982 0.43881929188053626 -0.3469985815789777 -0.5950405033354147 0.6269384845887995 0.18340121559315087 0.5553357651554497
-0.6845513765082757 0.00014022407936891884 -0.6409938939255867 0.1561768596310165 -0.1254064655809212 0.3416857162693723 0.5355298894576084 -0.5396226563603183
-0.242553889512161 0.5444743631825175 -0.5989128128791797 -0.11456002369590855 0.12615544110127772 -0.6773484870977853 0.530976317319742 0.30703761664945084
-0.16399927923337712 0.27092441359046526 0.0050282009734249015 -0.10614424308774006 -0.385351019180201 0.42587236043067145 -0.6891200495508905 -0.1664422397902687
-0.1888864395008757 -0.20695750434086366 -0.5708649570249322 0.15264254511341843 -0.5330066412753709 -0.7123604456152437 -0.2892072925427268 0.29600542774886707
0.5057485830197463 -0.250658482671171 -0.33242785544285997 -0.7357434361078559 0.37203626491143116 -0.11527721346006185 -0.6385225192650952 -0.19661506634957301
-0.47518750463859694 0.153164475716988 0.12995962981830875 -0.2582670575445206 0.6957262210905436 0.48543937549528776 -0.6982481171655631 -0.1354682239012645
0.37680293431179623 -0.17115712829487176 -0.34678852786145037 -0.5484822393968677 0.07676354893300935 -0.3671020054879387 -0.6718190004034776 -0.6045701217756486
-0.5617164418934296 -0.39776141326381287 -0.17657681057359204 -0.5066621771590936 0.2922373673800127 0.09088187520758562 0.6254181336177345 0.09122507901946032
0.2607527312175807 0.18516803030261234 0.26050925077294584 -0.7234010689822739 0.6842662253152757 0.3787653144627123 -0.04249040089430603 -0.02468727556250454
-0.6434503981499756 -0.01708967163359208 -0.49283195029968224 0.3665849276454875 -0.0852376906920307 -0.4817591468255265 -0.28881536860492385 -0.47495951422910165
-0.7316964807861469 -0.20491737274100463 0.6377718498696398 -0.4734965632802878 -0.38543308586134384 -0.45416410720541345 0.5408513552382349 -0.07542844112312452
-0.36728179035721914 0.12296557067472492 0.6025055846073576 0.4869028389112539 -0.6414240309142565 -0.610778693353843 -0.035569919616331595 -0.27326121337030834
0.5231944799133689 -0.17429783579704927 0.39599064799246625 0.13348939720128714 0.02339387279877313 -0.4832588038828833 0.0013489502116007634 -0.4413261858309022
0.3796841166238492 -0.2857488400132554 -0.5191208143425516 0.4495310657424048 -0.15778127887534063 -0.20196536251409802 -0.22835889016329944 -0.23711943431649352
0.11043622131521644 -0.5289384457700708 -0.3549033845345561 0.6153579856162094 -0.3360474733541256 -0.4703516143332155 0.7012143973460851 -0.6421986176584922
-0.7180085487810539 -0.46545872419838424 0.4384818531099946 -0.6719760683401894 -0.3286307931738116 0.13160982657914033 -0.28463783251527985 -0.504001373504344
-0.6532837975225516 -0.6873761679941293 -0.18829794112618398 -0.7152393799582039 -0.6851800750857345 -0.625579640643571 0.18119141865795022 -0.23473987998344112
0.2082448607996518 -0.3031748854268214 0.0672984694201672 0.016768103525272623 0.17889100511589862 0.6422617229930074 0.72683201984496 -0.0001855194868237032
0.36675159223227893 -0.031972957257488936 0.37025810197587533 -0.6161291993387089 0.5133963542914689 -0.26023477447782406 0.2388637549635981 -0.41611960096830414
0.2525824927987377 -0.19570217504517917 -0.14087111057387705 0.4046179205017714 -0.31949520158801376 0.2739421357040002 0.38731057814787884 -0.6420793290838045
-0.10008009292672687 -0.5810015585440995 -0.384252104823744 0.1331811308984875 -0.3795700376195045 -0.26899537846627175 -0.17972693107172116 -0.391591330041298
-0.4422400588556973 0.27097233991278996 0.43647789946200904 -0.16201197212469076 0.6027839020374379 0.37834740487776747 -0.05995421458500484 -0.6296871634846777
0.2898672701692515 -0.35523041082018075 0.344895666886816 -0.49634800670046353 -0.24016168247386158 0.18688112583932867 0.6725685077181699 -0.2612749403450022
-0.6108665078980777 0.6023826838915025 -0.6260931484132636 0.27418643702672296 -0.16083125933109793 0.2012068236019766 0.14806453308341497 -0.3017282514941324
-0.3855796743511882 -0.013203983975262932 0.2925004656928862 0.1536837379165991 -0.38022687763617297 0.36201073403499356 -0.06312325063350799 0.610619524922916
0.5683794554407817 0.48740399433925063 0.13282039220167446 -0.2659183307103683 0.1170254018083574 -0.6074988036815299 0.6454332017484933 -0.15809308811703623
0.7075969568478488 0.18125869745583068 0.52439538588825 0.018690589743205612 -0.33810858665935783 -0.30897948842788453 0.49987024275087266 0.6812834370531985
00000000: 78c4 634c 22c3 da3f 7247 84fa 143d e1bf
00000010: c65d d9de 915a d9bf 66dc 3aba 092f dd3f
00000020: c86e 326e 42c3 d23f b793 e72a 2a8c d43f
00000030: 9010 6f2f 7b3e d7bf 30b8 f9f5 85d5 e23f
00000040: c97c 4223 483f c7bf f396 d3f0 bd9a c13f
00000050: e0fa a912 2912 ab3f 5d58 93c2 30fd d9bf
00000060: a906 a758 dceb e23f 67f7 5748 88dd 653f
00000070: ae00 e792 2265 d43f 285f 39fe 91a0 d33f
00000080: 83ef 52cb 8829 cbbf c367 ab42 258a a6bf
00000090: 20c5 de82 9d15 dc3f 5bf7 e889 3935 d6bf
000000a0: 1cdf b361 920a e3bf ca34 fd4b e10f e43f
000000b0: 1276 82e7 b079 c73f 9189 b482 4fc5 e13f
000000c0: 4d1d d149 d8e7 e5bf 7b47 85ab 2361 223f
000000d0: 2713 6ba0 0583 e4bf e1eb 4074 9afd c33f
000000e0: bd41 30ae 510d c0bf 58c9 38c4 2dde d53f
000000f0: 9007 2894 0f23 e13f 5df1 a7bb 9644 e1bf
00000100: 4675 7c7f 010c cfbf 8c23 ec7f 556c e13f
00000110: 1316 0f34 4b2a e3bf 0ff2 3343 ce53 bdbf
00000120: 5708 df8a dc25 c03f e68f 02bc d6ac e5bf
00000130: 89d7 ba0b c2fd e03f e0ac 891a 81a6 d33f
00000140: 99fd 6faa edfd c4bf 16c7 035a d356 d13f
00000150: 5a34 d16b 7398 743f d873 b8e4 442c bbbf
00000160: a8fd 3652 97a9 d8bf d67b 1425 7e41 db3f
00000170: e0d8 7a7d 450d e6bf a73d 49b4 fa4d c5bf
00000180: dc35 284c 6e2d c8bf 0b24 6760 957d cabf
00000190: 4e58 1b96 8644 e2bf 5bc3 9e79 ca89 c33f
000001a0: 4083 9af1 630e e1bf e834 1c22 a8cb e6bf
000001b0: fa15 cf4d 5f82 d2bf 08ac e7bf c0f1 d23f
000001c0: 4c2e 02a7 172f e03f 0f69 62e0 c90a d0bf
000001d0: 1504 da7b 7f46 d5bf 988e 8ad1 358b e7bf
000001e0: 221e ae31 71cf d73f 3bf4 c8b5 ce82 bdbf
000001f0: 8219 40c7 c66e e4bf 13a7 efb7 ae2a c9bf
00000200: f4ff f8d9 7869 debf 8485 0ebf e49a c33f
00000210: f758 ef63 84a2 c03f 666c 728d 7287 d0bf
00000220: afb6 d1a2 6343 e63f e158 7c50 7011 df3f
00000230: 8907 776f 0c58 e6bf 2ecd a6d3 0557 c1bf
00000240: ecfb f90d 8a1d d83f e57a 400e 7ae8 c5bf
00000250: 1bbf 7282 c831 d6bf 39af 14a0 2a8d e1bf
00000260: 1c32 31a4 c6a6 b33f 2a78 f768 997e d7bf
00000270: 220f 728f 8a7f e5bf e548 a570 a358 e3bf
00000280: 35d9 71c2 94f9 e1bf 560b 6549 ec74 d9bf
00000290: dea1 52a5 119a c6bf 4497 2099 9336 e0bf
000002a0: 203e e45b 04b4 d23f e8d3 d0d9 0844 b73f
000002b0: 38d5 c6e3 6c03 e43f 59ae f6da 865a b73f
000002c0: 1e05 3b39 2cb0 d03f ed0c 3505 96b3 c73f
000002d0: 5804 18fe 2eac d03f 2673 a5ff 1926 e7bf
000002e0: 3791 6f48 82e5 e53f 0f7f 9edf b03d d83f
000002f0: 744e 7844 4dc1 a5bf 0d56 ac04 9f47 99bf
00000300: d7df 144a 2597 e4bf 5b08 1073 f47f 91bf
00000310: 8f81 3d05 8f8a dfbf c768 dca0 2076 d73f
00000320: 71a9 e825 23d2 b5bf 2587 0a51 24d5 debf
00000330: 9e61 af74 f37b d2bf 386f 2297 bc65 debf
00000340: b564 f2bc 0e6a e7bf 8c05 2783 bb3a cabf
00000350: 1bfc af82 a068 e43f aaa9 8387 c44d debf
00000360: 8288 a488 efaa d8bf e8b6 dd54 0611 ddbf
00000370: 1ddb 5780 a74e e13f 90e4 cf3f 474f b3bf
00000380: 9309 807b 8b81 d7bf b9f8 94f0 ab7a bf3f
00000390: 8578 b1ca b947 e33f 5f04 5d86 6a29 df3f
000003a0: aea5 74b0 8b86 e4bf 3c8c 21c2 7f8b e3bf
000003b0: af6d f272 3836 a2bf 4935 ac99 1c7d d1bf
000003c0: e99e 9559 02be e03f 1886 4138 644f c6bf
000003d0: 4191 a928 e957 d93f e7cf ab39 2e16 c13f
000003e0: ddda 633a 90f4 973f 8396 8b55 b6ed debf
000003f0: 338a bc42 e819 563f f6c6 c02f b03e dcbf
00000400: fd71 ed9b be4c d83f 0285 ae80 b549 d2bf
00000410: d0c5 0841 a39c e0bf f193 79f2 1dc5 dc3f
00000420: 0367 584c 2d32 c4bf 781f 7641 00da c9bf
00000430: fb48 8036 dd3a cdbf 7853 d1fb ed59 cebf
00000440: 66b9 d756 8c45 bc3f a8be c551 10ed e0bf
00000450: 4b33 74af bcb6 d6bf d7ba f13a 03b1 e33f
00000460: d366 fd42 cd81 d5bf 52a5 4ba8 3d1a debf
00000470: c0be 022d 5970 e63f f225 8c1d e48c e4bf
00000480: e26a 6810 edf9 e6bf f779 8463 13ca ddbf
00000490: 41cd bf30 1610 dc3f a0e7 a6f4 d380 e5bf
000004a0: c2f6 4873 4908 d5bf 80ac 7e3e 97d8 c03f
000004b0: 80e0 7699 8137 d2bf 3ce3 0a7d c720 e0bf
000004c0: a4b6 2b6c b3e7 e4bf f0b4 324e fcfe e5bf
000004d0: 8e42 859d 251a c8bf ef6a 37b2 3de3 e6bf
000004e0: 55a6 cbc3 feec e5bf 3671 3398 bf04 e4bf
000004f0: a1d2 b9c8 4731 c73f a344 ccd5 f40b cebf
00000500: e5e7 5881 c4a7 ca3f 971c 78a2 3767 d3bf
00000510: 5c00 3bf5 783a b13f ec27 0761 a82b 913f
00000520: b4bb 4284 e6e5 c63f 5248 f774 688d e43f
00000530: 666e 5d39 3542 e73f 4126 e241 0051 28bf
00000540: 2e30 99ab db78 d73f fffc 8d6b c25e a0bf
00000550: cd2f c409 4fb2 d73f 47a7 2895 54b7 e3bf
00000560: dd28 f230 be6d e03f 1682 6ac1 afa7 d0bf
00000570: 4f5b e267 1693 ce3f 388a 581b b4a1 dabf
00000580: 0837 87c2 4f2a d03f 449d c9d4 c40c c9bf
00000590: 25d9 6e86 1008 c2bf 8b8f fb8f 42e5 d93f
000005a0: 212a 8300 9c72 d4bf b515 7698 4488 d13f
000005b0: 3a8f a24e b2c9 d83f 3048 fbf2 e98b e4bf
000005c0: bcd6 1956 d99e b9bf e8e6 9b94 9097 e2bf
000005d0: f9c6 e823 9697 d8bf 4c9f d34c 140c c13f
000005e0: 3681 8720 e04a d8bf fc6a 5264 3837 d1bf
000005f0: 32ed 94c5 4a01 c7bf 4a2b fb14 d50f d9bf
00000600: a20b 713f a94d dcbf 21f2 825e 9c57 d13f
00000610: 436e e7ff 40ef db3f 6402 ebec cebc c4bf
00000620: 46cb 3977 014a e33f af7e 9e08 d836 d83f
00000630: d2c7 cc9d 51b2 aebf 1616 bcb1 6526 e4bf
00000640: e0b1 6373 2f8d d23f c91b 4155 18bc d6bf
00000650: 2de7 7346 c512 d63f 60a6 0d6e 2ac4 dfbf
00000660: 1321 fd35 9ebd cebf 1b1b dc81 b8eb c73f
00000670: 9102 1f64 ae85 e53f e2f3 0287 bab8 d0bf
00000680: 669b 34eb 378c e3bf e4b3 df0c b846 e33f
00000690: 95e8 957f f408 e4bf a656 0245 458c d13f
000006a0: 2233 8063 1e96 c4bf b71f 8d2b 25c1 c93f
000006b0: 3138 a553 c7f3 c23f 7894 1c03 844f d3bf
000006c0: c1cd d55e 56ad d8bf 1228 ceba b00a 8bbf
000006d0: 4bce 8ddf 53b8 d23f a5b0 23a2 e8ab c33f
000006e0: cf7b 201d a355 d8bf d3cc de11 2f2b d73f
000006f0: 908f 1669 d828 b0bf b4f9 3af5 318a e33f
00000700: 2cc4 9a1c 2a30 e23f 521e e885 a031 df3f
00000710: 42c1 5f34 4200 c13f 5cb5 7351 ce04 d1bf
00000720: 8f72 9171 60f5 bd3f 407b c554 a170 e3bf
00000730: 2965 a887 63a7 e43f 3bd9 97f1 643c c4bf
00000740: ea23 8d5f a2a4 e63f e41b d828 7c33 c73f
00000750: d406 12d5 d8c7 e03f e794 c23e a023 933f
00000760: e4b7 8c32 92a3 d5bf 4daf 7be7 51c6 d3bf
00000770: f6f2 36c2 dffd df3f 1766 2eec 12cd e53f
