RNNPB-pytorch-master/model.pth (torch, 730372 bytes, 11 tensors)

pb f8 [30, 2]
000000 4d 29 12 dd e0 1a 6e 3f dc 2c a9 7d c0 fc 88 3f
       0.003674925982129518 0.012200836024155164
000010 6d 24 01 f8 17 cd 5f 3f ab 38 a3 7f 1f 27 93 3f
       0.0019409879751200135 0.01870393005884156
000020 02 ad c3 f2 de eb 62 bf 43 85 1a 9f 14 b6 90 3f
       -0.0023097376307440473 0.016319582186615788
000030 d3 ce 18 aa 8f 93 96 3f 96 64 99 6b 29 11 6a bf
       0.022047276265040616 -0.003182011508027725
000040 fa ec 6d 4d db fb 7a bf 9c 9a fc 01 cd 35 81 bf
       -0.0065878454687393565 -0.008403398154383006
000050 22 6b d0 8b d7 f7 73 bf bd 8c a6 42 56 b1 80 bf
       -0.004875032403129949 -0.008150743397726474
000060 dd 62 d2 66 09 b4 8c bf 89 55 a5 68 8a 07 97 bf
       -0.014015267801640469 -0.022489702832293488
000070 f8 ec af 52 24 e7 8f 3f ad c1 ac 03 08 19 8f bf
       0.015577586911595706 -0.015184462177416725
000080 4b 89 17 5f d9 49 9c bf 01 3b e6 3b 26 21 86 3f
       -0.027625461987449012 0.010805414870245668
000090 87 f7 da b4 84 57 39 bf 68 be 83 a0 c9 4e 8b bf
       -0.00038668622878989433 -0.013333869181649763
0000a0 7c ce 4f 5e 14 76 6a bf e8 a7 d4 66 73 1a 66 3f
       -0.0032301328487792085 0.002698159593497163
0000b0 ec 9c 2c 08 59 65 a1 3f 10 0e ad 80 54 76 98 3f
       0.03397634720595896 0.023888893464812766
0000c0 73 ea 21 62 a2 d0 99 3f 3e ea 36 7b b1 93 68 3f
       0.025209939231425737 0.003000113146950838
0000d0 b2 0e 1a e5 db ac 53 3f 6c cc 80 62 b6 1c 79 3f
       0.0012008807574667543 0.006130897942102736
0000e0 16 53 f6 50 cc 8e 61 3f 73 e5 8d 1a fa b6 6c 3f
       0.002143286757652861 0.0035052189672881095
0000f0 f2 c0 3f b1 76 b1 71 3f e0 f3 76 9d a4 2f 59 bf
       0.004319633142572098 -0.0015372378892231017
000100 b1 27 7f 34 c1 0c 79 3f 18 8c 65 c2 14 79 6f 3f
       0.0061156794617519975 0.003841915650967486
000110 a0 36 69 63 9a 61 95 bf d3 3b 40 18 2a de 92 3f
       -0.02088013870007066 0.018425615053327803
000120 7b 62 9e 43 6b 45 93 3f f5 72 a0 7e 20 68 6c bf
       0.018819499971501657 -0.003467620340428796
000130 29 58 98 3a 75 f9 71 bf d6 ad 37 7c b7 a3 76 3f
       -0.004388292241420935 0.005527226199301313
000140 90 df b3 d9 88 bf 80 bf 4e ab 10 49 e9 50 9e 3f
       -0.008177823203808804 0.02960552700475754
000150 9a 6f e8 04 c4 d5 78 bf e6 15 cc 3f 39 38 a2 3f
       -0.006063237857713144 0.03558520225309873
000160 f2 f8 eb f2 ca 68 45 3f 80 9b 18 bf 6b 69 7e 3f
       0.0006533614121904381 0.00742475594009917
000170 35 cc 06 6c cd c9 6a bf 14 32 27 70 15 0e 8d 3f
       -0.0032700550220510446 0.014187018857136947
000180 1d d7 b0 3e 3e 51 80 bf c5 3f 81 55 d2 83 8b 3f
       -0.007967458999796723 0.013435023531343302
000190 8b fd 22 33 83 1a 76 3f e8 5b 93 6f 0d 84 98 3f
       0.005396378039392312 0.02394124024871394
0001a0 b9 94 a3 d6 90 e2 71 3f bf a5 dc d2 97 01 87 bf
       0.00436646058571915 -0.011233507273192054
0001b0 9f e3 3e 1d d4 76 4d bf da a7 69 d1 2b 6f 90 bf
       -0.0008991752351824484 -0.01604908433584016
0001c0 40 ac f1 29 06 fd 75 bf 2d c8 00 b1 3d 89 80 bf
       -0.0053682556891586075 -0.008074266399578612
0001d0 09 4d 84 31 4f 5f 84 bf ef a0 5f 2f 0b 4e 99 bf
       -0.00994741315711291 -0.024711775556995382

weight f8 [240, 6]
000000 ac 1f ec 73 62 e8 cd 3f 89 de b9 5b 8c cc b9 bf
       0.23365431461593056 -0.10077740897565425
000010 f1 40 fa 3b 64 08 c9 3f dc 6a 00 cb 4d 1e d2 bf
       0.19556858948317982 -0.28309960197809203
000020 d8 01 96 31 d6 8d d5 3f 7b c1 ec 40 8f 39 95 bf
       0.3367820247877069 -0.020727384889313676
000030 be 9a f4 60 51 60 d8 bf 3b 4e 08 f6 e6 61 b7 3f
       -0.38087877720174024 0.09133761889125307
000040 40 90 93 5b c1 62 c2 bf c7 1f b8 ee 8d 9a b2 3f
       -0.14363877269272685 0.07267081335169144
000050 04 af 7d a6 f5 04 c1 bf 48 8a fc d2 c2 3b d7 bf
       -0.13296385411683087 -0.3630225239195721
000060 a7 14 69 d1 6d 00 6c 3f ba 72 f0 c2 0d 30 da 3f
       0.00341817330198298 0.40918296849285307
000070 d9 b8 1a b5 ac 86 d4 3f 27 fe 29 0b 7d 1a be bf
       0.32071988759970577 -0.11759168169555122
000080 47 d9 93 52 eb 1c d1 bf 5d 22 a6 eb 3d 80 c4 bf
       -0.26739008964741057 -0.16016363149926152
000090 c0 c7 4b c3 1a d4 b3 bf c4 61 40 6e 76 bc d5 bf
       -0.07745520847291143 -0.33962784544703717
0000a0 37 19 04 dc d1 a8 d8 3f 81 d7 e0 8e b2 6a c7 bf
       0.3853039406389089 -0.1829436490676777
0000b0 2d 02 48 22 bd ef d9 3f dc 67 eb e3 c0 f4 c1 bf
       0.4052574953821331 -0.14028178337940644
0000c0 6f 7e 44 85 6f 37 d9 3f c2 c2 06 98 ad 33 aa bf
       0.394008522171112 -0.05117552262107018
0000d0 fa ee 9d 4a ff bf d9 bf e5 4d 36 2d 81 79 cd 3f
       -0.40234358107385015 0.23027052600501388
0000e0 e1 b0 60 2e 32 16 b0 3f b0 fc 09 6c bf a5 d6 bf
       0.06283868438976327 -0.35386643934902917
0000f0 a0 b0 b3 69 c9 9f d1 bf 0c 0e 6d f1 94 b4 d7 bf
       -0.27537761042072795 -0.3703968389201868
000100 57 42 a7 e2 b4 d8 cf bf 32 52 1a 14 3d 1e ce bf
       -0.24880086009081268 -0.2352978084715161
000110 f3 04 47 49 5f 11 ae 3f 04 2b af 65 24 57 be 3f
       0.05872628945827243 0.11851718409085882
000120 40 37 a3 ba 30 cf b6 3f 2e 55 32 00 44 e1 be 3f
       0.08909897381383036 0.12062478070068458
000130 b7 8c d9 62 13 e7 d6 3f c5 08 f4 71 4f 81 b2 bf
       0.3578537431078063 -0.07228561908781035
000140 44 db bb 4a 5b f2 d1 3f ba 81 bc 24 b3 5f d7 bf
       0.28041727350448675 -0.3652160509828054
000150 e7 ea 09 a4 fa ca d3 3f 55 e8 70 a5 63 7e d5 3f
       0.3092638589802576 0.33583918720581113
000160 eb 60 d0 04 b6 f7 d4 bf 9a fc 05 a1 1e 74 a0 3f
       -0.32761908025851366 0.03213592258088589
000170 d0 34 35 5f 4b 71 a8 bf 68 ff ff 98 49 83 d4 bf
       -0.047739367839861324 -0.3205131525173699
000180 16 93 a2 0f 8b de 70 bf c5 e8 0a b8 a8 bd c2 3f
       -0.004118483741113696 0.14641293512779022
000190 34 5c a9 d1 ea 21 d0 3f 2f 80 38 dd f1 4e b7 bf
       0.25207014536630656 -0.09104835177322522
0001a0 9b 42 0f 11 12 f6 c1 bf f4 bc 45 5c 64 4d c8 3f
       -0.1403219779299619 0.18986181741227137
0001b0 42 95 27 96 3e 4d d4 bf 9f 2e 70 29 d4 b2 bf bf
       -0.31721462882554274 -0.12382246028590281
0001c0 f7 28 f7 dd eb 45 c6 3f 91 47 12 b0 fc 27 d4 bf
       0.17400883043439538 -0.31494061655495736
0001d0 50 b7 ba 92 de c6 d0 3f 67 de 89 a4 cb a5 d5 3f
       0.2621380265144255 0.3382443529912735
0001e0 8c c5 ae 79 5f c5 c1 bf d4 a8 75 16 15 03 c4 bf
       -0.1388358444360559 -0.15634406658802524
0001f0 bd 57 e1 52 8d dd d0 bf de 7d 54 5b 16 3d a3 3f
       -0.2635224637391465 0.03757543434971543
000200 b5 7d e7 a8 88 0b db bf b3 52 3b 8f 85 0b 50 3f
       -0.42257896894985986 0.0009793094913465416
000210 ea 26 f5 ec 2b 9c a0 bf 3c c1 8a 76 43 e1 c7 bf
       -0.03244149463223585 -0.18656199730095036
000220 ec 75 d2 47 eb af c7 bf 0b 0d 7b e6 21 31 c9 3f
       -0.1850561237996965 0.19681190256060463
000230 59 1c 46 32 0f 98 d7 bf 3c 58 52 17 cf a6 a3 bf
       -0.3686559668498766 -0.03838202628792017
000240 75 14 e0 3e fd ed d4 3f 35 3f c6 a3 b7 cf b5 3f
       0.3270257104889603 0.08520076511763082
000250 75 34 e7 e5 e2 7e d4 3f c5 a7 de 6b 80 1c d2 bf
       0.3202445264003651 -0.2829896024146559
000260 fe a8 4f 62 1b 5c c3 3f 2d 67 54 dc 17 71 cb bf
       0.15124838161802495 -0.2143888307407961
000270 06 75 8e cf 4a c2 a4 bf aa e9 e5 03 39 55 d8 bf
       -0.04054483207367281 -0.3802015817706442
000280 fa 09 5d b9 d2 cd 6b bf 39 89 c2 37 ee da 9b bf
       -0.0033940425591094643 -0.027202341225924107
000290 5c 21 89 82 66 b2 c5 bf f1 1f d9 53 e5 23 d5 3f
       -0.1695068490391901 0.33031590641303327
0002a0 90 a7 3d c3 02 f3 84 bf b2 e5 e6 91 fe a3 ce 3f
       -0.01022913130119088 0.2393797123348072
0002b0 7a d6 a8 80 a8 5a d1 bf 88 6b db 74 ff ee c7 bf
       -0.27115833820730695 -0.1869811363784175
0002c0 9a 26 1a 7a 20 92 d7 bf c5 4f 43 62 56 14 a6 bf
       -0.36829387592352136 -0.04312391232966165
0002d0 3f c1 46 18 f2 ee bf 3f 40 7d b1 32 9c 19 c2 3f
       0.12473977177319727 0.14140655970821037
0002e0 5e a0 6f fd ee cd c5 bf be 53 55 25 ba 3f d7 bf
       -0.17034709334189108 -0.3632645954688164
0002f0 12 07 75 61 f3 11 98 bf dd 1d 7c 95 68 91 d7 bf
       -0.02350597650843784 -0.36825003240707394
000300 ab ac 72 bb 39 2d bc 3f a2 86 2c 0e f0 09 c5 3f
       0.1100650866161909 0.16436577503286737
000310 c0 e2 14 cb 2c 0d c6 bf 14 c8 53 50 fb 87 c7 bf
       -0.1722770682915975 -0.183837331983853
000320 6f aa 49 4a 9c 4e bd bf 89 c2 8b 81 bd 6b b1 3f
       -0.1144807511679262 0.06805023586981397
000330 aa 06 a0 46 0d 5d d2 3f 0e 3b d9 b5 44 9b d7 bf
       0.28692943474752985 -0.36885183104179553
000340 53 31 43 a2 91 c1 d7 3f 30 72 aa d2 7f 80 b6 bf
       0.37118950696892233 -0.08789824383934142
000350 6c 45 fe 86 b4 bb bc bf a0 93 b7 66 76 94 d9 bf
       -0.11223915382131161 -0.3996864321800846
000360 d6 15 43 10 09 49 d2 3f a6 60 d8 6d 61 8d ca 3f
       0.285707727318678 0.20743959296738018
000370 3b 64 21 13 c9 d6 d7 3f 65 05 b3 f4 7b d5 d1 bf
       0.372484463388506 -0.27865504166046257
000380 34 c5 b0 02 f5 11 d2 3f d5 88 fd bb a5 2c c8 3f
       0.2823460127138617 0.18886253051011317
000390 e8 fb 0d b7 69 76 bf bf 9a bd 43 80 cf 97 d2 3f
       -0.12290058821780259 0.29051578069535255
0003a0 e6 f2 ea 3b a7 66 02 bf 81 da 46 d5 ef 3c d3 3f
       -3.509710176305917e-05 0.3005942900448773
0003b0 e1 6d f3 d4 5d 78 74 3f cc 42 78 8c ef 5b d6 3f
       0.004997602968809884 0.3493613120818224
0003c0 db 24 56 34 60 2f c3 bf e0 6d 59 8d 31 a8 d3 3f
       -0.14988329463475378 0.30714072040220053
0003d0 da dc b2 9a e3 8a d1 3f 20 8a 6e 43 ce f1 ca 3f
       0.27410211665433126 0.21050432484214898
0003e0 0d d8 e9 d6 4c af d4 bf 65 a4 59 92 25 db d9 3f
       -0.323199472309512 0.40400065700538895
0003f0 ea da e0 49 76 d7 9a 3f b5 d6 43 38 83 91 cb 3f
       0.026212547549415634 0.21537819144548612
000400 35 ea 4c 94 67 36 d7 bf 1d f7 b0 9e 51 01 c9 bf
       -0.3626955936667032 -0.19535274742696
000410 54 36 18 3f 86 ad d5 bf 98 5f 5e 05 42 33 c4 3f
       -0.33871608888225535 0.15781426679745603
000420 94 c0 32 26 e4 15 b6 3f b8 c9 4a 5c 8c 64 d1 bf
       0.08627153332304466 -0.2717619801798281
000430 e5 de 77 eb af c0 b2 3f 8a 90 ec 81 69 31 be bf
       0.0732526731370587 -0.1179414694020712
000440 cb 74 8e 48 b3 0b d1 3f a9 45 8b 9b bd aa db bf
       0.26633913121788727 -0.43229618253561825
000450 00 3d 49 79 71 d3 a7 3f e5 d4 7d 7f c7 64 c8 3f
       0.046535059028082415 0.19057553982899048
000460 f6 79 9d 82 b1 45 bb 3f 08 53 8a 63 40 d9 d0 3f
       0.10653218687864538 0.2632599803994684
000470 4c 23 aa 77 2e 95 d6 bf 4c c2 04 1c e2 fd d2 3f
       -0.35285531698223305 0.2967458032244721
000480 c2 82 88 b7 bc b7 d1 bf 60 a6 83 a1 d5 6c d7 bf
       -0.27683942721527555 -0.3660177304542227
000490 8d bb ed 75 6f 55 bc bf e0 32 3b 1e 85 0e c5 3f
       -0.11067864064328443 0.16450561500678074
0004a0 45 ed 2f 37 7e a7 ce 3f 0a 21 9f 9c 4b f0 dc 3f
       0.2394864816159076 0.4521664647586624
0004b0 57 ba da 61 ae 95 c8 bf 40 07 52 fa d0 3e db 3f
       -0.19206790712401542 0.42570900388101407
0004c0 31 18 2b 5d ce dc bc 3f 6c 17 53 f6 d5 20 b8 bf
       0.11274423384301781 -0.09425103439124677
0004d0 b0 d0 da 01 91 aa a6 3f 71 10 97 8c 99 47 94 bf
       0.044270068622979664 -0.01980438156694259
0004e0 d5 0c 45 3b 8f 9a d4 3f eb 2f 81 01 b7 57 d1 bf
       0.3219335631185463 -0.2709786905950284
0004f0 15 ec 6c aa 15 ba af 3f 43 b6 3e 66 13 ec c1 3f
       0.06196658807171943 0.14001696102552516
000500 eb 3d 9a d7 9a fe c5 bf 22 96 5a 00 4f 03 c5 3f
       -0.1718324234720819 0.16416347043302532
000510 e5 23 62 eb 10 eb d3 bf 7b 27 b8 33 37 ca b4 bf
       -0.3112222956338527 -0.08121056568793776
000520 36 3f de 59 aa a4 a8 3f 6c 6b dd 98 05 d2 c0 3f
       0.04813129755996075 0.13140935863597336
000530 fe 81 27 ee 3b 88 b1 bf 42 95 ae 5c 3e 41 d9 3f
       -0.06848501743616706 0.39460715342496056
000540 89 3f fd 36 1c 40 cc bf 51 39 36 fa 71 f3 bd bf
       -0.2207064884664727 -0.11699592932402438
000550 51 cc 57 be 27 e6 9e bf 61 e7 46 23 27 3e b5 bf
       -0.030174847595798863 -0.08297962771658042
000560 3d 6c be 9d 8f 7f db 3f fe 6c 3e 1a 62 89 bb bf
       0.42966070561095987 -0.10756505146712311
000570 49 29 dd b4 d0 9a d0 3f e0 07 4b 49 3f 09 c8 3f
       0.25944917356959657 0.18778220251812083
000580 a6 90 a9 91 eb e9 db bf 14 43 3d ad 2a 0f d2 3f
       -0.4361523554309862 0.2821757022657476
000590 34 36 da 2e f5 d3 c1 bf 6f 9d 7f a9 2d af c4 bf
       -0.13928093707765898 -0.16159601951879263
0005a0 f9 08 17 bc 6f e0 d5 bf f6 9b 2d 2f 17 0e c7 3f
       -0.3418235146347253 0.18011750987645286
0005b0 d9 d8 3d b6 28 e5 d0 bf 89 85 f9 3e ff 01 77 bf
       -0.26398675725012094 -0.00561713891474492
0005c0 7c 72 9a af ff 66 9e bf 55 7a 90 2d 86 13 d1 bf
       -0.02968978413865607 -0.26681665849347286
0005d0 06 e4 78 b8 32 31 97 3f 67 e0 49 8a c1 49 d9 bf
       0.022648613461772292 -0.3951267099832933
0005e0 ba 92 6f b2 c9 19 cd bf 12 19 bf 56 41 a4 a4 bf
       -0.22734948361098423 -0.040315667952699155
0005f0 0b 1c a5 a4 b1 76 b3 bf a9 84 49 ce 9a 44 cf bf
       -0.07602987546589206 -0.24428114960304484
000600 68 db 04 d6 f9 b0 b8 3f c2 d3 66 be e9 96 a7 3f
       0.09645043826172428 0.04607325028647537
000610 05 04 22 ec 3f 71 9c bf 7b ac 10 6e 10 13 c6 3f
       -0.027775763308913088 0.1724567925860788
000620 d0 69 ec 3e e9 46 cd 3f 9a f6 3d 9e 52 30 d4 bf
       0.2287265355342485 -0.31544938519787424
000630 dc 0d 04 83 52 34 d9 bf d8 30 2b a7 93 44 d6 bf
       -0.39381850046649247 -0.3479355938441251
000640 58 fd 69 33 a6 94 d9 3f 31 15 12 d1 c7 57 d3 3f
       0.39969782849217017 0.30223269860319407
000650 19 6d 40 ea e3 e0 c1 3f ab 3b ad eb 8e d8 97 3f
       0.13967560709065976 0.023287041792453483
000660 05 85 64 a9 01 54 d7 bf 52 2d f7 e8 cd c6 d7 3f
       -0.3645023493027824 0.37150905371227794
000670 93 cb e4 4e e2 a1 a2 bf 7f 98 53 a1 63 a7 a2 bf
       -0.03639132702882999 -0.036433328097516864
000680 10 a7 ee 91 4b 72 c5 3f 0a 43 56 82 c4 a2 a2 bf
       0.1675505125579595 -0.03639806834246968
000690 fa 58 5d e2 33 5a ce bf 25 64 e3 70 db ad ba 3f
       -0.23712776711426625 0.10421535020886148
0006a0 80 46 20 35 af 34 c4 bf 40 6c 39 27 46 85 cb 3f
       -0.1578578004269282 0.21500470080613532
0006b0 80 97 0e 93 e5 03 a2 bf 6c 84 65 5b 00 de d7 3f
       -0.03518598003510842 0.372924889807172
0006c0 79 06 70 84 d3 92 ce bf b9 5a 54 08 5e 79 d1 3f
       -0.23885578123740794 0.2730326730101456
0006d0 d1 bc 5f dc 5f 26 ba 3f 24 5c 55 29 1a 27 d2 bf
       0.10214804773544307 -0.2836366084715698
0006e0 64 61 db 34 8a 2f d7 bf b2 45 11 1e 22 28 c3 bf
       -0.36227660333454126 -0.14966227024210138
0006f0 76 ee c2 4b ec b7 d4 bf ac 0d fb 4a 5d 6b d6 bf
       -0.3237257709367677 -0.35030300447780394
000700 80 2b cf f4 5b 00 a8 3f 48 f7 e3 55 2a ed d0 bf
       0.04687774051088578 -0.2644754256033264
000710 68 7d df 8f fb 68 c3 bf 65 ac ad fc a9 a4 9d 3f
       -0.15164131665276703 0.028948455855623573
000720 6c 07 cc d5 9f db d8 3f 0b 49 ed c4 a2 da cb bf
       0.3884048068867887 -0.21760973563738903
000730 7c 86 5e aa 45 e5 bd bf 1d 37 e9 3c b2 89 d6 bf
       -0.11677966508298171 -0.3521543116411168
000740 ef cc 70 2e b6 f9 d4 bf 74 16 75 06 68 f2 b9 bf
       -0.3277411893388508 -0.10135507733965615
000750 42 73 03 58 8b 86 b2 3f e9 d7 7c ad 96 dc c3 bf
       0.07236548327223338 -0.15516932936742414
000760 98 60 ce 4d 5a e3 c0 bf 02 3b ad 5d a2 b9 c6 3f
       -0.13193825530175185 0.1775401074796364
000770 68 dd d7 77 39 00 c8 3f b4 68 9a dd cc 7b d5 bf
       0.1875068507358535 -0.33568116799291237
000780 69 de 3f 9d 78 b5 c1 3f 54 95 6c 59 cb 4f d8 3f
       0.13835055998036985 0.37987025959804055
000790 ce c2 78 30 52 d8 d3 3f ba 9f 34 fd 1d 53 97 bf
       0.3100781892162957 -0.022778004245225004
0007a0 3e 08 a0 7a 1a 33 b4 3f 4d 89 6c 12 dd 69 cd bf
       0.07890477651383862 -0.22979319953544533
0007b0 74 23 4c e8 23 c5 9d bf 2b dd 37 e2 a1 2e ce bf
       -0.02907234292345913 -0.23579810663043452
0007c0 82 4b 90 98 55 cf c5 bf 2c 5c 4e 35 d1 a6 d0 3f
       -0.17038984250447348 0.26018171506570087
0007d0 ad e6 b1 05 4a 76 cf bf b1 6a 8d 56 3c 18 db bf
       -0.24579739835808337 -0.4233542294729587
0007e0 e5 c2 8c d0 9b bd d6 3f ee ad a2 75 f9 61 d2 3f
       0.3553227936381929 0.2872298859390118
0007f0 e9 c2 b1 72 66 b3 d5 bf 7d 10 31 1a 02 9d d0 3f
       -0.33907471848128395 0.2595830207612904

bias f8 [240]
000000 4b 2c 0b 4a 49 c4 be bf 57 6b cd b5 de a5 c8 bf
       -0.12018259103494804 -0.1925619495112538
000010 df 59 f0 af fa ca c5 bf 61 e8 02 91 97 a6 c2 bf
       -0.170256935031559 -0.14570898609764796
000020 79 87 00 d8 6a d2 cd 3f 6e 15 f8 4c 55 e2 c7 3f
       0.23298392817474303 0.1865946412873813
000030 e0 8b 10 84 bd e8 d5 bf 12 5e 43 5d d4 6f c5 bf
       -0.34233034035622545 -0.16747526697030019
000040 95 f5 86 66 ad ae d9 3f ae 25 25 cf ba e0 ca bf
       0.40128645908756627 -0.20998320688731326
000050 2a 67 b8 7c 70 14 c7 3f ad 18 74 b1 e0 58 d9 3f
       0.1803112610803564 0.39604966477817066
000060 69 a9 a4 33 02 6f d1 3f a8 b1 80 d7 93 54 d8 3f
       0.2724004272773955 0.3801622013586674
000070 2b 8d b4 1f 59 ea 94 3f 6e 6f c9 b0 13 82 d2 3f
       0.020425217208992635 0.2891892649110933
000080 12 d5 27 4f 34 68 cd bf d5 e0 ac 1b 7d 72 d5 bf
       -0.22974256386775288 -0.3351128359095246
000090 48 a0 34 d7 8b 6b c3 bf 4d aa ba 39 20 40 c6 3f
       -0.15171955116352565 0.1738319665795011
0000a0 65 5c c0 a6 82 80 c9 bf 84 a0 1e b9 c1 76 be 3f
       -0.19923432485731776 0.11899958390734083
0000b0 79 fd ed a3 06 26 bb bf 56 eb 19 c1 cc cb c7 bf
       -0.10604897978008933 -0.1859069769742187
0000c0 fe 91 0b 1a e2 68 8e bf 03 8a ea 93 12 38 d9 3f
       -0.014848486347042385 0.3940473980420906
0000d0 cc d3 9e 88 0f 79 a6 3f fb d3 f1 d0 79 6b cb 3f
       0.04389236967782714 0.21421740248084106
0000e0 2b 6f a6 d0 18 5d d3 3f 66 2a de fe 92 d0 d0 3f
       0.30255718589772823 0.2627303589767166
0000f0 2b da f3 4f f7 22 c2 bf ab 4b ba 54 e9 bb d4 3f
       -0.14169207958157534 0.3239692046565163
000100 54 3c eb 1e 7a 00 c5 bf 4d de c7 09 9a a3 cd 3f
       -0.16407705793105498 0.23155522801947584
000110 e7 54 58 a2 f1 40 c7 bf 60 f8 6f 06 e2 c9 aa 3f
       -0.18166943003658462 0.05232149437505096
000120 1e 49 67 4d a8 b2 d1 bf 93 86 ff 2e 0a 0e c3 3f
       -0.2765293842213782 0.14886596007186323
000130 85 1c 69 72 48 ca d3 3f ac 11 ac 2c 55 8b d7 bf
       0.3092213742533619 -0.3678791939021504
000140 81 51 19 b6 14 ea d2 bf f7 ac f8 e6 29 19 c2 bf
       -0.2955371645268983 -0.14139293458843102
000150 aa 0c 66 cb b3 81 8a bf e2 20 e8 52 f0 2e a7 3f
       -0.012942700047238926 0.045279989357426734
000160 7f c3 ab ee 5e e1 d8 3f 27 c1 3b 45 16 c7 d3 bf
       0.38875554378233085 -0.3090263057811335
000170 37 66 17 f8 b5 60 c2 3f 36 f0 1d 9d 82 73 45 bf
       0.14357637990797098 -0.0006546390306847508
000180 fc 49 38 46 f3 1e da bf 81 f4 c8 1a ed 5a c8 bf
       -0.4081390557995801 -0.1902748471056022
000190 32 20 83 6b de 8f 94 3f 8e 6e 6f 49 b2 90 d2 3f
       0.020080066024803674 0.29008156939901475
0001a0 1b 81 d1 65 33 47 cb bf 66 c4 76 c5 0d ea b5 bf
       -0.21311037513351824 -0.085602627476662
0001b0 06 24 2c d6 ae 26 71 bf 9c b7 54 33 33 d3 a2 3f
       -0.004187281566154338 0.03676757814024187
0001c0 48 93 ec fd b3 c7 d3 3f 1b da 1c 63 b0 88 be bf
       0.30906390950467655 -0.11927320880645491
0001d0 ab 40 d6 e4 ae a4 d1 bf 8d eb 94 2a 62 ed a8 bf
       -0.27567646357875714 -0.04868609208866479
0001e0 ca 09 0b b2 df 35 b1 3f b8 b1 b8 2f d9 2c d8 3f
       0.0672282991099912 0.3777373281507397
0001f0 ff 8c e0 af 49 9e cd bf e5 b1 48 a5 9e 62 cf bf
       -0.23139306152106795 -0.24519713469034268
000200 e2 fa 54 69 a0 d1 d0 3f 45 fb 43 8c a8 df 7c bf
       0.26279459272693206 -0.007049234762461169
000210 da c2 a6 39 3f 61 d0 3f 97 60 52 5e 9c f2 d8 bf
       0.25593548421879364 -0.38980778895484874
000220 2a 21 3c 7a 25 f7 9b 3f a0 98 92 10 6e 34 d1 3f
       0.027309976182580055 0.2688250696031762
000230 e9 2b 54 bd c1 68 bb bf 11 89 d6 10 92 d0 c1 3f
       -0.10706721184048686 0.13917756864709266
000240 f4 0e b3 17 cb 23 d2 3f d3 ff f4 4e fa 12 d9 3f
       0.28343465151213754 0.3917833109917385
000250 24 7e fe 0a fe c7 ca bf b5 97 8e bc be f3 c9 3f
       -0.20922828232595336 0.2027510090530861
000260 78 ce 14 6f 17 bb c0 bf f2 ff 8f 1e 5d a3 cb bf
       -0.1307095806492844 -0.21592296593007593
000270 16 e7 ff 50 87 e4 d7 bf 80 cb d0 e1 06 ed d6 3f
       -0.3733232775699532 0.3582169728498954
000280 d9 ca 20 f6 e9 56 c8 bf 0d aa ba 3a 1c 54 d4 bf
       -0.190152402095541 -0.3176336835410048
000290 7e c3 34 0a 69 47 d0 bf 0a 1b 81 c2 30 26 a4 bf
       -0.2543585395497344 -0.03935387014694498
0002a0 a5 04 2c fa 5c 87 d6 bf e1 df b3 27 89 9e b3 3f
       -0.35201191359380807 0.07663781375219926
0002b0 da 1e 3e ee 7b be c3 3f ff a3 ae 3a fd 27 c8 3f
       0.15425061352674768 0.18872037282315543
0002c0 c3 08 2d ac d0 55 ad bf 5d 07 24 08 26 23 8c 3f
       -0.05729534246212744 0.01373891556113776
0002d0 97 d1 05 59 68 74 b9 3f da 9a a4 27 08 4e 88 3f
       0.09943248914152601 0.011867583951766947
0002e0 f6 41 63 95 50 0e c4 3f 35 53 a4 83 20 30 bf bf
       0.1566868524009945 -0.12182810987389987
0002f0 92 23 f7 63 90 a4 b3 3f 15 06 b6 f9 83 26 b2 bf
       0.07672979775010294 -0.07090020033322049
000300 58 f5 4c 41 79 63 d5 bf 64 41 7d a0 ce de da 3f
       -0.3341963899327616 0.41984906838208347
000310 c7 89 e6 79 f7 28 d3 bf c6 61 f1 23 b4 53 d7 bf
       -0.2993754091677627 -0.36448386678742073
000320 9b a3 ff b6 b6 b8 b0 3f b1 7e 51 da ca 44 d8 3f
       0.06531850784052866 0.37919875450277646
000330 82 be be 9a a7 9a 90 bf d6 13 76 bf 49 da c9 3f
       -0.016214960880175606 0.20197412346547478
000340 29 4c 77 79 89 6e c1 3f 68 f4 bf 3a 7a c0 d3 bf
       0.1361858218284351 -0.3086228917816869
000350 28 98 32 67 18 ce c3 bf 5d f3 12 6a eb d4 d1 3f
       -0.15472703017184242 0.2786205802802238
000360 a1 28 f5 f8 54 6f ce 3f c0 39 1c 5a 01 7c d9 3f
       0.2377725806821376 0.3981936817152949
000370 75 df 43 6e 56 87 c6 3f 96 06 3e 3e 98 0d ba bf
       0.17600517639197802 -0.10176993865573034
000380 3d cd 17 71 9c 05 be 3f 29 cd d8 da 19 94 d5 bf
       0.11727311860140772 -0.33716436740651773
000390 0a e0 0c 6b 9f 53 c3 bf 38 8e b3 8a 62 1a 95 bf
       -0.15098946311059108 -0.020608463016186657
0003a0 65 db 05 59 eb 99 ba 3f c1 93 3d 25 16 1d d8 3f
       0.10391112254533892 0.3767752994229419
0003b0 91 58 4e 10 67 0c b2 3f a1 83 86 c3 84 7f b2 3f
       0.0705017485437074 0.0722582795483633
0003c0 4f ba b8 3a b7 52 be 3f d1 c2 9f d9 68 5a b7 3f
       0.11844964202530515 0.0912232905682331
0003d0 ef 2b 6c bd b5 15 c3 3f 44 4b 90 ca 7c ab d7 bf
       0.14910003422878002 -0.3698417642746572
0003e0 71 4b 0a 54 3c 48 a2 3f 24 ef f8 ef 8b 0e d7 3f
       0.03570736432916178 0.3602628558617076
0003f0 2e 79 ab 72 d1 a1 af bf ef c0 2f e5 8a ac be 3f
       -0.06178144955423402 0.11982029052137809
000400 21 d4 2e f7 3f 01 bf bf 1d b7 a2 bf 1d 1a cb 3f
       -0.12111282143344272 0.21173450333793023
000410 c8 75 19 27 17 f9 d8 3f 65 16 92 55 31 ab c8 bf
       0.390203273947773 -0.19272438696150399
000420 82 ae 56 cf e8 04 d3 3f fd bd 60 dc 9a 84 b3 3f
       0.2971746468344706 0.07624214058227348
000430 10 cc 1e fc e3 16 b8 3f 19 ba d8 69 38 ff 61 bf
       0.09409928231507103 -0.0021968938661054535
000440 a5 ad 4a be 36 2f d1 bf 39 bc ea 7b 31 6f b5 3f
       -0.26850670416998873 0.08372792506519112
000450 df eb 77 86 d6 7b d4 3f 76 a5 76 87 79 fa 97 bf
       0.32005847102817414 -0.02341642274192198
000460 f2 37 1f 1c 8c c3 d7 bf fa 20 ca f3 2a e7 d3 bf
       -0.3713102602604287 -0.31098436172079824
000470 09 29 0c 38 25 8a d9 bf 30 1b 51 43 3f c6 d1 bf
       -0.3990567252482298 -0.27772504400165854
000480 27 59 7b ba b3 2d cb bf f3 74 0d fe ba 49 bc bf
       -0.2123322163158232 -0.11050003721671313
000490 35 6f bf 14 21 28 ce bf 9d 44 1a 67 b3 0f d9 bf
       -0.23559964669299807 -0.39158330029119687
0004a0 3f 25 e9 1c 73 b6 d3 3f 0d 53 80 4a ab 49 b9 bf
       0.30801084349930713 -0.0987803513419971
0004b0 b1 04 1c 79 3c 0b c3 3f 08 41 8e 70 60 59 af 3f
       0.14878040231272885 0.061228765239436156
0004c0 80 df 18 c1 01 36 c8 3f c3 4d cf a4 c0 c6 b1 bf
       0.1891481583459118 -0.0694389726989391
0004d0 fa 9a 25 71 3c e7 d9 bf 7b 63 bc f6 50 e9 c8 3f
       -0.4047385315847546 0.1946202473416426
0004e0 5d d0 bd ae 0a a6 d8 bf e7 0c 31 1d 8a 3d d7 3f
       -0.385134382863958 0.363131073481965
0004f0 48 da 0b a8 8f 01 ad 3f c0 9d 67 d9 1f 01 d0 3f
       0.056652535689796724 0.2500686286061544
000500 12 e8 95 7d da b2 cb bf 70 15 32 22 9f 7a cd 3f
       -0.21639567501171136 0.23030461473187414
000510 d4 60 80 2d cc fb c6 3f 94 b1 82 d0 0e d1 d7 bf
       0.17955925199271994 -0.3721348797069137
000520 80 49 8d 6d 7e 44 b9 bf 8f 13 8c f7 bb fe d4 bf
       -0.09870138334853173 -0.3280477445080629
000530 65 62 33 16 2d 5d 9c bf 26 6f 3a 83 93 e5 b5 bf
       -0.027699188690208838 -0.08553430513205437
000540 26 37 29 b5 5d 63 ce 3f 28 7c f0 d3 f4 79 c1 3f
       0.23740741105796664 0.13653431271174665
000550 0c 22 30 60 6e 6e c9 3f bc b8 cf af 85 86 d8 3f
       0.19868259140663758 0.3832105843456579
000560 a2 20 59 3e ed 13 9f bf 00 b6 28 c3 cb 27 d4 3f
       -0.030349451952390034 0.3149289518213152
000570 12 3e 5e 13 b7 17 c4 bf 89 f5 a9 1e 3a bc 7f bf
       -0.1569737286158533 -0.0077478666595402
000580 10 1a 32 7a 55 95 d3 3f 17 99 8f 5e cd 71 c2 bf
       0.30598961766409705 -0.14409796826584717
000590 3d d7 02 d0 72 42 b1 bf 23 74 04 16 71 26 d5 3f
       -0.06742017343898694 0.33047129774223744
0005a0 ec e5 4a 38 94 19 ab 3f 7c 74 3d 7a ec 8e cb bf
       0.05292952716031238 -0.21529918640854706
0005b0 0a 0f 9a 38 8f da d1 bf d0 c9 84 0a c5 40 d0 3f
       -0.27896481063383816 0.2539532282563899
0005c0 c6 fb 7a 82 9e 6c d5 bf fa 7c 4c 59 72 a1 d6 bf
       -0.3347545885298441 -0.35360392304023913
0005d0 aa 6a 72 03 a1 0f d0 bf b3 8e e8 c6 4f ab d7 3f
       -0.25095391594519845 0.36983103203440776
0005e0 71 70 da 0a ec 50 c4 bf 8a 4c b8 8f 55 bb d1 3f
       -0.1587195446962855 0.2770589736475776
0005f0 41 ad b2 7d 08 af bf bf 27 90 87 47 a3 dc d0 3f
       -0.12376454418943174 0.263466663220472
000600 1f 4b 48 6b 61 72 b8 3f 10 de 1e 58 62 02 d4 bf
       0.09549530858229759 -0.3126455174019336
000610 7d 66 35 a1 52 44 c9 3f 16 e4 20 68 3c 06 cb 3f
       0.19739754554284508 0.21112780651472524
000620 e7 4c 1f 58 15 8f c8 3f e8 8a b3 3c de 99 aa bf
       0.19186655810208395 -0.05195517054541715
000630 66 4a d8 a1 ad 11 aa 3f 45 f3 43 05 98 93 cb 3f
       0.05091612435002872 0.21544170624829398
000640 93 f2 7e a0 0a d6 ca bf b2 26 18 fb 49 a5 c3 bf
       -0.20965702854836774 -0.153481719593676
000650 f4 8f 53 1f ea bd c9 bf 79 fd 67 1d af 1d a2 3f
       -0.20110823182687876 0.035382721271157665
000660 7c 90 22 df f2 30 ce 3f bf 92 8e 31 9a 99 54 3f
       0.23586879630341062 0.0012573247715660788
000670 e0 22 e3 d9 40 df ca bf bb e6 95 1f 3e 46 c2 3f
       -0.209938150778064 0.14276863615287091
000680 8c 66 6d 10 63 62 d7 3f f6 e7 32 e6 92 21 b1 bf
       0.3653800640509892 -0.06691854591454657
000690 c8 63 ce b9 59 19 d9 bf b3 7a 48 fd dd aa c4 3f
       -0.39217227120530795 0.16146445147838548
0006a0 70 9f 72 31 7a 68 97 3f 1e 15 75 e2 29 1f d0 3f
       0.022859486835528242 0.25190207591033864
0006b0 bb 47 62 0a 0d 7b d2 bf c1 67 78 cd 59 1b d6 bf
       -0.28876043333104534 -0.3454193598314497
0006c0 b0 5d a3 89 eb 0c c2 bf 05 bb f3 1f 8b 11 d4 bf
       -0.14101928921330176 -0.3135707675964315
0006d0 4c ee c2 74 b6 98 d8 3f d1 bf d7 22 ab 84 8e bf
       0.38432084467396943 -0.014901482582871413
0006e0 4d 90 9b 16 d9 e7 cc 3f 29 4b 0f 3f 53 be d8 bf
       0.22582543949022452 -0.3866165271585254
0006f0 99 79 7f bd a5 5a d4 bf 61 b3 e9 ef 1e 0d d3 bf
       -0.3180326796117697 -0.29767583302491657
000700 8e 9c d0 a9 f4 cd bb 3f 56 f3 fa 40 2a 2f cd bf
       0.10861138482924756 -0.22800186322083488
000710 b5 e3 63 e3 6e 77 d6 bf 73 06 ec d9 9f 8c d5 bf
       -0.3510396214110714 -0.3367080333847305
000720 bb 5e 33 cd a9 3a c7 3f d5 02 ea e0 cd 44 bf 3f
       0.18147776145518954 0.12214361897532496
000730 7f 6e 86 ae 5f 06 9f bf b9 2f 59 47 11 06 da 3f
       -0.030297751452606377 0.4066203305017058
000740 54 cc fb 9d e0 e6 d9 bf bc de bf 00 58 2d d4 bf
       -0.4047166388328993 -0.31526756356423014
000750 15 a0 9d da 32 14 d4 3f a3 c1 f9 cf 7b 6a c3 3f
       0.3137328276557139 0.15168712287005545
000760 1a 2d b7 46 2d 36 d7 3f 6b 59 04 11 33 8a d9 bf
       0.36268169313253085 -0.39906002675834057
000770 96 52 41 33 1e 70 c2 bf 84 5b 40 4e d2 9d b8 bf
       -0.1440465688962333 -0.09615816507753833

weight f8 [240, 2]
000000 75 74 fa 77 fc fd e4 3f 64 b1 54 ba df 6f d2 3f
       0.6560041755034393 0.2880782432209996
000010 7d 9f 84 79 2a 49 d6 3f f0 0c e2 1f f9 da e1 bf
       0.34821569315908346 -0.5579801199641263
000020 2c 48 75 12 d5 49 d3 bf 56 ce bc a7 18 d0 d8 3f
       -0.3013813667540741 0.3877011907636406
000030 ea bb 57 ae c3 e8 d1 3f b2 04 65 08 a3 c1 d6 bf
       0.27983181024222736 -0.35556865520272674
000040 1f 30 bd f4 9e 7a b7 bf cf 98 8c 4b a5 38 d6 bf
       -0.09171479678224202 -0.3472073781762334
000050 e6 90 32 57 80 80 cc bf 7e 7a 39 4a b8 b2 e1 bf
       -0.22267154939357353 -0.5530663919160614
000060 7f fe 76 47 49 e6 e3 3f 60 26 35 31 91 11 de 3f
       0.6218611141011506 0.4698222141783841
000070 88 d9 90 c6 43 e2 e4 3f ae dd 9b 3e eb 02 e3 3f
       0.6526202085722597 0.5941063139752509
000080 41 69 e7 1f a8 db e4 3f 37 e2 c4 a9 29 23 e1 bf
       0.6518135665058155 -0.5355423274805337
000090 0f fd 7a 0b cc 52 e6 3f bb 46 b3 e9 97 53 e0 bf
       0.6976070617892293 -0.5102042736491151
0000a0 7f 16 f7 23 ef 16 d1 bf f6 28 cb 6f 10 b5 e3 3f
       -0.26702478897309584 0.6158525641888264
0000b0 8d 65 a0 8b d2 4b d6 3f a7 25 9c 1f 4f a0 d1 3f
       0.34837783465771893 0.2754094895068086
0000c0 d6 76 d0 f8 00 9e c0 3f e1 c6 6b 55 a2 13 b5 3f
       0.12982189320694343 0.08233084283326832
0000d0 44 52 3d 49 52 79 d6 bf 21 49 fe 67 40 8b b4 bf
       -0.35115487243937005 -0.08024981058978088
0000e0 b8 48 09 3e b5 5d e1 3f eb 5a a6 79 5d f2 c7 3f
       0.5426889621396844 0.18708389701779224
0000f0 64 3e b2 eb 8c 00 c8 bf 61 ce 8f 8b 37 84 b1 bf
       -0.18751679905516305 -0.06842372090596306
000100 ce 54 f3 20 14 b1 cb bf bc 1e 1d 3f 72 83 dd 3f
       -0.2163415108576942 0.4611478439660279
000110 9d 41 52 68 14 3b df 3f 98 f6 c2 b2 dd f6 cd bf
       0.4879809397471265 -0.23409625271408596
000120 63 4d 19 b3 36 fa a7 3f ac 7f 9e c4 db 54 ab 3f
       0.04683085380807019 0.053381793738707856
000130 29 06 09 68 6d 3f df 3f 3c c4 d1 1c b9 4c e0 bf
       0.4882462993592492 -0.5093656123045842
000140 61 8f b6 5f 47 f5 dd 3f 99 69 64 b4 cd ab c0 bf
       0.4680956301401605 -0.13024302776541388
000150 a4 02 58 59 ad d8 d7 3f f8 a4 87 29 72 29 bb bf
       0.37259992337207337 -0.10610116495049116
000160 cc 0e 6a 2c 8f 50 dc bf 66 ac 4f 8e cc 5c bc 3f
       -0.44241694772084084 0.11079100107569814
000170 a1 68 ce 38 c4 40 9f bf b9 6b db 8d 14 fe b6 3f
       -0.03052050205915491 0.08981445754345331
000180 00 69 68 ab 04 57 cc bf 24 8a ec 49 e1 cf a6 bf
       -0.2214055859520343 -0.04455474879639024
000190 17 14 f5 d9 cb 4a e6 bf 1e 81 31 cc d6 a3 d8 bf
       -0.6966304070452932 -0.3849999422145788
0001a0 d1 57 49 d6 16 2e be 3f 26 2b f0 9d d7 e3 c5 bf
       0.1178907654915229 -0.17101569377731457
0001b0 22 40 63 58 91 6b ca 3f 3b 27 db 40 e9 64 e1 3f
       0.2064077073650888 0.5435682551117006
0001c0 70 2b db 69 47 ae d1 3f 27 d0 fb 8d 2e 2e e2 bf
       0.2762621434928212 -0.5681374333494248
0001d0 01 5b 8c 94 70 2c e4 3f bc 0e 9d 96 84 b3 c8 3f
       0.6304247762044214 0.19297845224547483
0001e0 bf 6a 3d bd 39 90 e1 3f 4a 32 d5 d7 0c 3a da bf
       0.5488556572048181 -0.4097931010954069
0001f0 b8 73 ec b6 c4 a7 e4 3f 25 df c4 60 b8 3a c4 3f
       0.6454795429923399 0.15804199910211839
000200 b6 d5 39 a5 a7 be 9d 3f 7e e8 63 5c d0 8e e2 bf
       0.029047603091802286 -0.5799333385941876
000210 bf 30 6f 60 80 05 bf 3f 70 0c 88 6a 81 ae af 3f
       0.12117769579271263 0.06187824654991736
000220 fc b1 5a 2f e5 6e b4 bf ff 54 b8 82 d9 7a d3 bf
       -0.07981712728605567 -0.3043731476366957
000230 2d 41 eb bc 3f b5 d0 3f 44 c2 0d e6 40 3c df 3f
       0.26106255959622865 0.48805258241830907
000240 c1 c0 a3 c0 e4 d9 d9 bf 50 63 96 04 28 71 d0 bf
       -0.4039241677519492 -0.2569065136718125
000250 0e 2e 0d 7b 44 ef c4 3f 79 6f 0d f9 0a 50 d3 3f
       0.1635518647038769 0.30176042863398994
000260 d9 d1 46 f2 51 02 e4 bf 26 9e 0d 0c c7 24 cb bf
       -0.6252832157102218 -0.21205986107382663
000270 54 e0 61 b2 13 c0 e4 bf c9 75 33 36 85 bc e4 3f
       -0.6484468921689861 0.6480127390493006
000280 80 8c 17 1a 03 0a c9 bf 14 fe 34 52 db ee e4 3f
       -0.1956180455591472 0.6541573148351199
000290 7f 70 6a 07 2a c2 c3 3f 38 f5 34 6c 7f f9 e0 bf
       0.15436292039965235 -0.5304562676825872
0002a0 65 bd c3 0f 53 0e dd bf f8 fb f3 01 68 25 d0 bf
       -0.4539992956115014 -0.2522830981324087
0002b0 4a a1 06 db 46 28 e5 bf 20 8f af 2d 59 ee c4 bf
       -0.6611665990686018 -0.16352381449461806
0002c0 db eb d5 89 28 52 e1 3f 23 37 35 c0 8f 21 b3 3f
       0.541279095850196 0.07473085825514807
0002d0 ba 43 fd f4 9e 54 cc bf c3 95 84 ea 64 45 d4 3f
       -0.22133242571228867 0.31673548605098406
0002e0 b3 8f 93 f9 ee d0 e1 bf 3a 31 26 f8 27 4b e0 3f
       -0.5567545771159444 0.5091743323005524
0002f0 59 33 92 1b 44 e2 bf 3f ac e1 2d aa 26 83 b0 3f
       0.12454629586336576 0.0645012059666274
000300 2c 0d 8c c8 0d 59 e0 3f 9d c9 ee 11 2c dd da bf
       0.5108708302435949 -0.4197492766499183
000310 24 9f 01 83 c3 62 e3 3f 06 8d 6b 55 40 7e e3 3f
       0.6058061178891632 0.6091615360604983
000320 66 49 36 d2 3f 53 d4 bf e6 95 10 d5 fa 91 e6 3f
       -0.317581134114468 0.7053198014661433
000330 0a 88 dc 2a 4c 27 d6 3f c1 f5 7b 46 a6 2d dd 3f
       0.3461485308235984 0.45591122515892485
000340 41 ce bd e8 f2 68 e1 bf 92 d0 1f d6 6a 5a aa 3f
       -0.5440611406069779 0.05147107948133213
000350 58 4d 06 d0 83 86 c9 bf 94 05 58 82 9e 47 e5 3f
       -0.1994175687546924 0.6649925752428083
000360 24 d2 61 c3 fc 2d e1 bf a8 1b e8 20 70 85 cf 3f
       -0.5368636909539117 0.24625970465441793
000370 24 79 36 42 b5 52 d1 3f f5 3f cc b3 85 27 e0 bf
       0.2706730982407797 -0.5048244964291358
000380 db 31 5d d7 24 93 e2 3f c2 7d bb 78 63 49 e2 bf
       0.5804619032219834 -0.5714585645727583
000390 a6 ef 9f 07 e5 91 d8 bf 3c 2d 25 52 68 7b d2 3f
       -0.3839047026119665 0.2887821962546757
0003a0 e4 f8 9c 78 0a 31 d3 bf 34 6d bc 3d 49 d8 e3 3f
       -0.2998682191718116 0.6201521116048867
0003b0 43 2e cf 57 da e2 cd 3f bc 0e b8 af 32 c9 e5 3f
       0.23348550117076358 0.6808103019725062
0003c0 dc 78 b5 de e7 4a c4 bf 18 c2 c1 dd e9 74 d6 bf
       -0.15853594183403785 -0.3508858361811078
0003d0 73 84 59 28 8f 93 e0 bf 57 05 76 66 cd 42 d9 3f
       -0.5180125988082537 0.3947022915454758
0003e0 77 10 a0 4a de d1 d9 3f 06 37 60 5f b8 46 d5 bf
       0.40343434608099166 -0.33244141878172717
0003f0 c9 a6 fe 8f 37 61 dc bf c4 ba b7 60 06 81 e4 3f
       -0.44343365728364553 0.640750111486192
000400 63 4b 6f 12 08 46 e6 3f a4 78 e7 3f b0 89 a7 3f
       0.6960487709096522 0.0459723546989477
000410 55 bc 40 e5 39 7b dd bf 29 e3 11 dc f4 fb c6 3f
       -0.4606461275861354 0.1795641016540455
000420 5f dd a9 81 26 51 d1 3f f4 35 3a 0a 0b da c5 bf
       0.2705780283208323 -0.17071664809593268
000430 10 de c6 47 91 4c e3 3f 09 8d 3b df e0 40 c4 bf
       0.603096618832696 -0.15822993183164893
000440 57 f5 9c 9f 47 97 e6 3f ab f3 ac 91 46 70 d6 3f
       0.7059667699283335 0.3506027624715055
000450 a7 84 86 33 91 8c a1 bf 51 b9 f2 79 5f d0 9b bf
       -0.03427556756947441 -0.02716206723987941
000460 03 bb 06 0b 65 32 b6 bf 24 75 c5 40 fc ed de 3f
       -0.08670646208950576 0.48327547383617486
000470 31 2c 8b 42 57 6b d3 bf f4 36 4e 69 28 53 b6 bf
       -0.3034265661087288 -0.08720638819633192
000480 de f7 5e 97 46 a9 dd 3f c0 fd 08 b4 96 c2 c8 3f
       0.4634567716819883 0.19343837538506925
000490 e6 4f 0a ac 7d d2 dd 3f 7c 23 41 91 6f a7 bb 3f
       0.46597234535988574 0.10802361770869412
0004a0 0d 05 a8 56 6e 70 e4 3f a7 12 55 45 80 1c b4 3f
       0.6387244884973896 0.07855989163096898
0004b0 8a 39 8b f0 34 be ba 3f bb 78 fe 89 b9 54 a0 3f
       0.10446482536938198 0.0318963986348861
0004c0 c6 44 44 cb f5 05 bf 3f 00 f4 a2 2e 37 02 de bf
       0.1211846944099931 -0.46888522676800903
0004d0 0f f5 74 51 01 4f e3 3f 77 a0 17 66 21 44 d2 3f
       0.6033941832498914 0.2854083535189668
0004e0 08 ba e4 40 96 5c de bf 9e 36 2a 10 c5 6c d7 bf
       -0.47440105759861284 -0.36601378038981547
0004f0 cd a7 3b 00 10 57 bb bf d4 e8 b7 8d 63 bb d8 bf
       -0.10679721837701024 -0.3864373096436229
000500 3d ca 7a 2d 9e 80 d1 bf 29 18 01 f4 4e 16 e2 3f
       -0.2734752124917213 0.5652231946667189
000510 fb 78 b4 e1 fa ad e3 3f 70 65 d8 53 89 c2 e0 3f
       0.6149877937603202 0.5237471234897111
000520 12 45 cc f8 b7 08 d7 3f 41 bf 2b 1b d6 69 b4 bf
       0.3599071435611033 -0.07973993457175955
000530 02 10 e3 70 f2 e4 db 3f 8e 00 73 b6 52 a6 b2 3f
       0.4358488180553196 0.07285038904501759
000540 fa 78 fa 66 b9 01 e1 bf 8c 37 93 04 2d e6 e1 3f
       -0.5314604769990006 0.5593476380688442
000550 99 af 51 b6 9e 19 bc bf 7e 98 6b a2 79 06 da bf
       -0.10976592970990708 -0.40664521085125915
000560 7c 13 55 cf 34 f2 dd bf a5 75 51 14 f5 c5 c2 3f
       -0.4679080986718913 0.14666617862796474
000570 33 ac f8 96 26 b7 d9 3f 15 bb c8 6c a5 d6 d7 bf
       0.4018036341028079 -0.3724759638161442
000580 a4 e7 e5 ba fe 31 d5 bf 2a 71 48 c1 a5 02 db 3f
       -0.33117645503772963 0.4220365893868513
000590 7e 63 82 75 4d 64 e0 3f fc 85 a9 0f 50 84 d5 3f
       0.5122439665893663 0.3362007286978892
0005a0 f9 17 c5 e8 f0 db e4 bf 85 82 db 50 78 bb cf bf
       -0.6518482729231884 -0.24790862987631015
0005b0 9f a9 f3 85 54 2e e2 3f 24 c5 e4 38 33 4b d9 3f
       0.5681555382009725 0.39521484905260906
0005c0 c6 bc ba b2 16 cf cd 3f 82 1b 1c c6 4f 5a 99 bf
       0.2328823445036276 -0.02475857397714832
0005d0 8a b9 48 a3 64 6e d9 3f cf 41 3b 40 ba 17 d0 3f
       0.39736286111556096 0.2514482142696836
0005e0 7f 53 07 bd 42 81 d8 3f 31 9c 44 2a 2d d3 c1 3f
       0.3828894468290897 0.13925709308497994
0005f0 0a 02 e2 e7 d2 b9 cd bf 68 db ce ff 01 94 b4 3f
       -0.23223339388279413 0.0803834199458443
000600 97 ec 37 0c 8b 06 cb bf 07 f4 4d ef b2 e4 e4 3f
       -0.2111371812496585 0.6529173540035352
000610 44 56 2f 75 ab 27 b1 bf e2 ee bc a8 e8 56 d8 3f
       -0.06701156245193213 0.38030449369737884
000620 7c 67 58 4c 02 b7 70 bf 2b f2 69 8e e9 c9 e2 3f
       -0.004080780961453697 0.5871475011368309
000630 3a a3 e6 1a b6 58 d7 bf cc 5e 1c 7c 0b 19 da bf
       -0.36478951098483814 -0.4077786170978299
000640 e6 4c 01 f5 13 b9 b2 3f 45 83 e1 6c 23 8f a6 3f
       0.07313656550950362 0.04406080917465841
000650 1c e9 0f d9 1b 0b c1 3f 61 e2 21 35 46 8a ac 3f
       0.1331515130876334 0.05574244879330049
000660 b5 b7 51 0c 6c 9c e6 bf 03 24 f5 a0 cc fa b7 bf
       -0.7065944901094016 -0.0936706440890163
000670 45 33 78 4b d3 fe cb bf d5 0f 3d 5f 41 12 96 3f
       -0.21871415314708478 0.021554013669870493
000680 ea ca 8b a8 2e 70 b0 3f d9 17 94 21 11 16 d7 3f
       0.06421176543134846 0.36072185782574945
000690 28 26 b5 b3 dd 13 9d bf be b9 38 df 11 c7 e0 3f
       -0.028396095365030544 0.5243005142017905
0006a0 ca 79 34 53 d5 c1 e3 3f cc 37 db e7 30 3f e1 3f
       0.6174112916085559 0.5389637497371438
0006b0 5d 1d aa 78 5c bd c6 bf c5 a1 c1 38 83 7f bf bf
       -0.17765384570905499 -0.12303943763402632
0006c0 6c 47 57 05 34 0c d7 3f 7f 05 51 e6 2b bc de bf
       0.3601198246152453 -0.4802350758728479
0006d0 54 82 f1 93 df 7c c0 3f f6 a8 b4 60 13 0e e3 bf
       0.12881083225058154 -0.5954682244094147
0006e0 a8 ca 55 af 69 b4 b7 bf f0 c0 3f 7b 37 09 ce 3f
       -0.09259663134234108 0.23465627210635587
0006f0 d2 89 d6 7c 34 ff e3 bf b7 79 62 a9 c1 70 e2 bf
       -0.6249029577486971 -0.5762642200750666
000700 14 3f df c9 06 df dc bf a3 a7 2f 56 c7 31 cc bf
       -0.4511124583632278 -0.22026912411029995
000710 fe d3 19 fc f2 0c e0 3f 4c 98 fb e5 4e 51 e6 bf
       0.5015807079167869 -0.6974253169871729
000720 60 2e 74 46 14 e1 c2 bf a9 44 5d 4a 5e 4e e4 3f
       -0.1474938720715384 0.6345664455822276
000730 43 b0 d8 a2 2b b8 c2 3f 43 a2 52 96 bd 50 91 3f
       0.14624543620573335 0.016909563350653533
000740 a2 bc 00 95 13 1b e6 3f e1 9e cc cd 17 3c d8 3f
       0.6908052358829944 0.3786677846678526
000750 aa 22 74 6a a3 9c d6 3f 62 16 94 82 71 c1 d2 3f
       0.3533104457460846 0.2930568480663621
000760 62 ad a2 16 37 2d c1 3f b3 04 7d 45 87 a5 e1 bf
       0.13419235806700686 -0.551456104011001
000770 a3 96 e9 85 6a 4b e5 3f 2c 5f 62 ed 80 c8 d6 3f
       0.6654560676076539 0.3559877699094496
000780 ef 9a b7 4c f6 1e cc bf 84 c7 56 35 c2 b1 d4 3f
       -0.21969488855321326 0.3233495255363936
000790 88 80 fa f8 26 16 de bf ab 76 e7 9f 1e 2d c9 3f
       -0.4701020652228256 0.19668944175548594
0007a0 3d c9 da bb 35 cd d5 bf 42 5c 8b 72 4d 22 de bf
       -0.340650018169203 -0.47084366022085444
0007b0 fa c0 f9 3c fb e8 c5 3f fb bd b7 45 14 09 c3 bf
       0.17117252805065403 -0.1487145748537698
0007c0 c9 10 47 b0 de 98 cf 3f ae 33 92 40 a6 09 cd 3f
       0.24685271842293435 0.22685697701345248
0007d0 76 8b 00 6a d8 e1 a0 bf a6 10 f9 b3 4c fd c1 3f
       -0.03297306341143884 0.14054259097804794
0007e0 0c 6f 71 07 f7 33 bf 3f 7a 27 e4 da 27 4f c7 3f
       0.12188667232242895 0.1821031397633382
0007f0 65 51 72 b8 9e 71 e6 3f c3 f4 7f bf 3e eb df bf
       0.7013696291419761 -0.49873322201876763
